Src_code/model/keypoint_classifier/keypoint_classifier.tflite (tflite, 9432 bytes, 8 tensors)

dense_15/bias f4 [26]
00000000: 097b 873f 63e5 0bc0 3d92 0f41 933f 3240
00000010: cd80 afbf 9ee3 ea40 67cb c93f 4d39 5140
00000020: eb2b ab3e fc15 8140 a012 26c0 1d70 4ac1
00000030: a395 0f40 f82e df3e 4f15 8c40 91cd a340
00000040: 9afa c740 0f62 11c1 fe10 ed40 3046 5540
00000050: a253 f6c0 fab5 7ac1 544d 9b3f 1e59 17c0
00000060: 27fd 083f e6eb e640
1.0584422 -2.1858757 8.973203 2.7851303 -1.3711182 7.3402853 1.5765198 3.2691224
0.33431944 4.0339336 -2.5948868 -12.652371 2.243508 0.43590522 4.377601 5.1188436
6.249341 -9.08644 7.4083242 3.332409 -7.697709 -15.669428 1.2132974 -2.3648143
0.5351128 7.216296

dense_14/bias f4 [15]
00000000: 1d2d babf 7747 1b41 6f68 3041 268b dc3f
00000010: ed23 3141 7efe 4541 628e 2241 2e91 0f41
00000020: 3ec7 4c41 5314 c93e 29b1 6541 007a 1341
00000030: 0e97 0f41 8de0 1240 b90f 4641
-1.4545017 9.704947 11.0254965 1.7229965 11.071271 12.374632 10.159761 8.972944
12.798643 0.3927332 14.355752 9.217285 8.974379 2.2949555 12.378839

dense_13/bias f4 [30]
00000000: 1d09 9abf de51 643d 2f10 a53c db6c 15c0
00000010: 3cbd b8bf bc85 68bb 38c2 2fbe 4e43 24bf
00000020: be11 25be 1c5c 833e c704 91bb d782 e1bd
00000030: e2ab 9cbd c8b9 3b3d 46d4 08bf d902 eebe
00000040: 5bdf 4abe 4584 26c0 49f4 c83c 2604 863d
00000050: 1774 1ebe 9b1d 4fbd 029a 84bd 47f5 15bc
00000060: 5bbe 50be e2f0 15bd 78c4 603e b066 ddbb
00000070: f91b e4bd 6f6f 0a3d
-1.2034031 0.055742137 0.020149319 -2.334769 -1.443275 -0.0035480103 -0.17163932 -0.641652
-0.1612005 0.2565621 -0.0044256183 -0.11011284 -0.076499715 0.04583147 -0.53448904 -0.46486548
-0.19811766 -2.601823 0.024530547 0.0654376 -0.15473972 -0.050565343 -0.06474687 -0.009152717
-0.20385115 -0.036606677 0.21949947 -0.006756626 -0.11138148 0.033797678

dense_12/bias f4 [45]
00000000: bd4c 03c0 1492 01c1 6d1c f2bf 49d2 43c0
00000010: cb92 c9bf 07e0 ab3e 9f14 3fc0 af78 87c0
00000020: f6f6 efbf 6313 e3bf a62a ffbf 4976 b9c0
00000030: 9611 91c0 10f0 e2c0 cb09 1dc0 4c7e 46bf
00000040: fa69 41c0 42ce f8be 8d4c afbf c02b 4bc0
00000050: 870c d3c0 726a 2dc0 2f10 0ec0 b30a c7c0
00000060: a274 07c0 d8bc 3ac0 2817 b5bf 94c4 68c0
00000070: 5485 99bf 25f6 c0c0 5cd1 12bf 8d7d 6ec0
00000080: 23dc c0c0 7285 c5bf 28ca 4cc0 cdb3 a2c0
00000090: 1fbe e3be b503 65bf 0eb9 a4c0 29f4 eabf
000000a0: 6a93 fabf 1a71 85c0 bb57 e4bf cc79 7bc0
000000b0: 7e11 aec0
-2.0515587 -8.098164 -1.8914925 -3.0597098 -1.5747923 0.33569357 -2.9856336 -4.233482
-1.8747241 -1.7740291 -1.993489 -5.795689 -4.5333967 -7.0918045 -2.4537227 -0.77536464
-3.0220933 -0.48594862 -1.3695236 -3.1745453 -6.595279 -2.709622 -2.2197378 -6.220056
-2.1164937 -2.917776 -1.4147692 -3.6369982 -1.1993814 -6.030047 -0.5735071 -3.726413
-6.026872 -1.5431349 -3.1998386 -5.0844483 -0.44480988 -0.8945878 -5.1475897 -1.8355762
-1.9576237 -4.1700563 -1.7839273 -3.929309 -5.4396353

sequential_3/dense_12/MatMul i1 [45, 42] scale=0.10405415 zero_point=0
00000000: 0001 0bf9 04fc 0000 fc01 01fe f7ff f800
00000010: 0000 faff fa01 f900 fb01 f800 f901 fc02
00000020: fd02 f703 fa02 fb01 feff 00fe 0001 0000
00000030: 0000 0000 0000 0000 00b7 0001 0000 0000
00000040: 0000 0000 0000 0000 0000 ff01 0000 0000
00000050: 0000 ff00 0201 f5f8 f9ff f901 f901 0a01
00000060: 0200 01ff ffff 1101 0400 f800 eaff 0d01
00000070: 0101 f201 ee00 0501 ff00 f800 eb01 0101
00000080: 0006 0002 0002 ffc7 0000 ff00 0000 0000
00000090: 0000 0000 0000 00ff ff01 0001 0001 0102
000000a0: 0001 0001 0002 0102 0102 fafd fcfd fffe
000000b0: feff 00ff 0500 0800 08ff 04ff 0701 0501
000000c0: 0401 06ff 0501 0402 0101 0601 0601 0501
000000d0: 0401 01fe 0411 0011 ff11 0010 01f2 010b
000000e0: 001d ff33 0207 0108 0007 fe06 01f0 0007
000000f0: ffff fffa 01ed 0005 0105 01f9 feff f6ea
0.0 0.10405415 1.1445956 -0.7283791 0.4162166 -0.4162166 0.0 0.0
-0.4162166 0.10405415 0.10405415 -0.2081083 -0.9364874 -0.10405415 -0.8324332 0.0
0.0 0.0 -0.6243249 -0.10405415 -0.6243249 0.10405415 -0.7283791 0.0
-0.52027076 0.10405415 -0.8324332 0.0 -0.7283791 0.10405415 -0.4162166 0.2081083
-0.31216246 0.2081083 -0.9364874 0.31216246 -0.6243249 0.2081083 -0.52027076 0.10405415
-0.2081083 -0.10405415 0.0 -0.2081083 0.0 0.10405415 0.0 0.0
0.0 0.0 0.0 0.0 0.0 0.0 0.0 0.0
0.0 -7.595953 0.0 0.10405415 0.0 0.0 0.0 0.0
0.0 0.0 0.0 0.0 0.0 0.0 0.0 0.0
0.0 0.0 -0.10405415 0.10405415 0.0 0.0 0.0 0.0
0.0 0.0 -0.10405415 0.0 0.2081083 0.10405415 -1.1445956 -0.8324332
-0.7283791 -0.10405415 -0.7283791 0.10405415 -0.7283791 0.10405415 1.0405415 0.10405415
0.2081083 0.0 0.10405415 -0.10405415 -0.10405415 -0.10405415 1.7689207 0.10405415
0.4162166 0.0 -0.8324332 0.0 -2.2891912 -0.10405415 1.352704 0.10405415
0.10405415 0.10405415 -1.4567581 0.10405415 -1.8729748 0.0 0.52027076 0.10405415
-0.10405415 0.0 -0.8324332 0.0 -2.1851373 0.10405415 0.10405415 0.10405415
0.0 0.6243249 0.0 0.2081083 0.0 0.2081083 -0.10405415 -5.9310865
0.0 0.0 -0.10405415 0.0 0.0 0.0 0.0 0.0
0.0 0.0 0.0 0.0 0.0 0.0 0.0 -0.10405415
-0.10405415 0.10405415 0.0 0.10405415 0.0 0.10405415 0.10405415 0.2081083
0.0 0.10405415 0.0 0.10405415 0.0 0.2081083 0.10405415 0.2081083
0.10405415 0.2081083 -0.6243249 -0.31216246 -0.4162166 -0.31216246 -0.10405415 -0.2081083
-0.2081083 -0.10405415 0.0 -0.10405415 0.52027076 0.0 0.8324332 0.0
0.8324332 -0.10405415 0.4162166 -0.10405415 0.7283791 0.10405415 0.52027076 0.10405415
0.4162166 0.10405415 0.6243249 -0.10405415 0.52027076 0.10405415 0.4162166 0.2081083
0.10405415 0.10405415 0.6243249 0.10405415 0.6243249 0.10405415 0.52027076 0.10405415
0.4162166 0.10405415 0.10405415 -0.2081083 0.4162166 1.7689207 0.0 1.7689207
-0.10405415 1.7689207 0.0 1.6648664 0.10405415 -1.4567581 0.10405415 1.1445956
0.0 3.0175705 -0.10405415 5.3067617 0.2081083 0.7283791 0.10405415 0.8324332
0.0 0.7283791 -0.2081083 0.6243249 0.10405415 -1.6648664 0.0 0.7283791
-0.10405415 -0.10405415 -0.10405415 -0.6243249 0.10405415 -1.9770288 0.0 0.52027076
0.10405415 0.52027076 0.10405415 -0.7283791 -0.2081083 -0.10405415 -1.0405415 -2.2891912

sequential_3/dense_13/MatMul i1 [30, 45] scale=1.0969877 zero_point=0
00000000: 000c 0100 00ee 0100 0000 00fd 0000 0000
00000010: 0000 0000 0000 0000 0000 00f5 ef00 0000
00000020: 0100 0000 0000 0000 0000 0000 fb00 fe00
00000030: 0000 0000 0000 0000 0003 0000 0400 0000
00000040: 0100 0000 0000 0000 00f2 0200 00ff 0100
00000050: 0000 0000 0100 0000 0000 0000 0000 00fe
00000060: 0000 0000 0100 0000 0000 0000 0000 0500
00000070: 0008 0003 0000 0000 0000 0000 0000 0000
00000080: 0000 0000 0000 0000 0000 0000 0000 0000
00000090: 0000 0101 0000 0000 0000 0100 0000 0000
000000a0: 0000 0000 0400 0000 0000 0000 0000 0000
000000b0: 0100 0001 0000 0001 0000 00ff 0000 0001
000000c0: 00ff 0100 0000 0000 0000 0000 0000 0000
000000d0: 0001 0000 0000 0102 0000 0200 0000 0000
000000e0: 0100 f700 0000 0000 0000 0000 0000 0000
000000f0: 0000 0000 0002 0000 0700 0200 0000 0100
0.0 13.163853 1.0969877 0.0 0.0 -19.745779 1.0969877 0.0
0.0 0.0 0.0 -3.2909632 0.0 0.0 0.0 0.0
0.0 0.0 0.0 0.0 0.0 0.0 0.0 0.0
0.0 0.0 0.0 -12.066865 -18.648792 0.0 0.0 0.0
1.0969877 0.0 0.0 0.0 0.0 0.0 0.0 0.0
0.0 0.0 0.0 0.0 -5.4849386 0.0 -2.1939754 0.0
0.0 0.0 0.0 0.0 0.0 0.0 0.0 0.0
0.0 3.2909632 0.0 0.0 4.387951 0.0 0.0 0.0
1.0969877 0.0 0.0 0.0 0.0 0.0 0.0 0.0
0.0 -15.357828 2.1939754 0.0 0.0 -1.0969877 1.0969877 0.0
0.0 0.0 0.0 0.0 1.0969877 0.0 0.0 0.0
0.0 0.0 0.0 0.0 0.0 0.0 0.0 -2.1939754
0.0 0.0 0.0 0.0 1.0969877 0.0 0.0 0.0
0.0 0.0 0.0 0.0 0.0 0.0 5.4849386 0.0
0.0 8.775902 0.0 3.2909632 0.0 0.0 0.0 0.0
0.0 0.0 0.0 0.0 0.0 0.0 0.0 0.0
0.0 0.0 0.0 0.0 0.0 0.0 0.0 0.0
0.0 0.0 0.0 0.0 0.0 0.0 0.0 0.0
0.0 0.0 1.0969877 1.0969877 0.0 0.0 0.0 0.0
0.0 0.0 1.0969877 0.0 0.0 0.0 0.0 0.0
0.0 0.0 0.0 0.0 4.387951 0.0 0.0 0.0
0.0 0.0 0.0 0.0 0.0 0.0 0.0 0.0
1.0969877 0.0 0.0 1.0969877 0.0 0.0 0.0 1.0969877
0.0 0.0 0.0 -1.0969877 0.0 0.0 0.0 1.0969877
0.0 -1.0969877 1.0969877 0.0 0.0 0.0 0.0 0.0
0.0 0.0 0.0 0.0 0.0 0.0 0.0 0.0
0.0 1.0969877 0.0 0.0 0.0 0.0 1.0969877 2.1939754
0.0 0.0 2.1939754 0.0 0.0 0.0 0.0 0.0
1.0969877 0.0 -9.8728895 0.0 0.0 0.0 0.0 0.0
0.0 0.0 0.0 0.0 0.0 0.0 0.0 0.0
0.0 0.0 0.0 0.0 0.0 2.1939754 0.0 0.0
7.678914 0.0 2.1939754 0.0 0.0 0.0 1.0969877 0.0

sequential_3/dense_14/MatMul f4 [15, 30]
00000000: 39ee 8d3e 96d0 af3b e1f5 743c 5983 ab3c
00000010: 6afe a03d d9df 013d bd7d b03b 901d b53e
00000020: 42c4 94bb ce0d c13c 0f1c 8bbb ba99 d1bb
00000030: d813 46bc 61b6 2f3c a558 8d3c a194 853d
00000040: 3cfd 37bb 5e28 213f f25d 5f3c e993 413e
00000050: cb6c 963c 52cf 463e 3dfe dd3a 3a83 eabc
00000060: f13d 013f acef 933e 248d 273e 9dee 5b3c
00000070: 478a 09bd a499 ba3a 1a7e 2e3e 74c4 cac0
00000080: f8e4 05be a1af 2cbf 8a0b 6e3e b136 5abf
00000090: 952a 43bc 74fc 883d 9be9 63bf e03d e33e
000000a0: 149b 063c 75e9 f2bb c4e3 b6bd 9657 35be
000000b0: 34e6 cebc aa8a 3abf a45e bf3b 2bae fe3b
000000c0: b1cd 17be b717 ad3d 28cc da3d 81a7 273d
000000d0: c12f 62bf 5f89 773c c072 cabc 14aa 2e3b
000000e0: 8136 0b3c b8c7 22bf f658 ccbc ccc4 57be
000000f0: e16e 163c b8fa 393c 8bf0 b6be 867e 6bc0
00000100: 27dc 86bd 6d1e cfc0 c52f 05bd 8fe3 53bd
00000110: 7c76 f83b 45b0 f4bd 5b46 04bc 8a07 dcbc
00000120: cafa 85bf 48b2 68bf 9690 753c 90cf 74be
00000130: 70fc f3bc 74e9 00bf 6821 acbe ff77 27be
00000140: 0515 043e ab3d 94bd 7305 6a3c 6c6f afbb
00000150: 648c babc e565 91bd fcd6 98be a64a ccc0
00000160: 2c56 ca3c 6cda f8be 9a3f 183e 8ec6 4cbb
00000170: f440 873d ab86 90bd 637d 3cbf 33a6 07bf
00000180: 115d 7cba 3e20 013e 699a 46b9 189a e1bf
00000190: 70fe 0c3f 8add 59ba 9e56 a23e 3256 163d
000001a0: 7cc7 773c 682f b13d 91b8 03bc f7d2 14bf
000001b0: 849b 4a3d 41b3 e1bd da20 5b3d 720a ddba
000001c0: bf7b e83a baca 093f f594 993c 79be 62be
000001d0: a80d d2bd cb2a a73d 053d c63c 066e ffbb
000001e0: 0af2 29c1 dc6b 23c0 75cd 16bf b20c 1f3e
000001f0: 5435 f2bb 3b63 9c3c d3d2 153b 06d1 c1bc
00000200: c7f2 91c2 73cb 46bd 7374 97bc 9617 eb3b
00000210: f4a9 6c3e 9fc0 40bf e7c0 4ebc 20bc 483b
00000220: fec6 31bb f0b9 a4bd 777a 25bf b665 09bd
00000230: dca4 61c1 5b86 65c2 8360 c4c2 a43b 0bbc
00000240: 0b0c c63a 7a05 20bc a29e ccbc fb54 9cbc
00000250: 8d26 a3be ace3 04bf c804 b8bb 7656 f83c
00000260: 216e a0bd f8ad 84bd d58b debf 1381 7abe
00000270: c665 b9bc 0ecf 2ec0 3284 cc3c 7d0d dcbe
00000280: 4672 51bd b114 20bc 9c32 27c0 12c5 b9bd
00000290: 4e76 89bc cede 90bd 27d5 75bc 92e5 b1c0
000002a0: 3052 c9bd 694e 26bf 47b4 ff3e 07c0 28be
000002b0: 1686 d63c 9c64 67bd 4198 dcc0 afb1 5cc0
000002c0: 5e4c 7abf 5b64 1ebe b97c 30bc 5b1b 27bc
000002d0: 42a9 8e3d 29f6 e3bb 63f8 8cc1 54b5 c7be
000002e0: 225d 05bd a82d 55be 6c01 703c 9266 79bd
000002f0: 831e 58bc bd7a 13bf c844 043c e2cd 4e3a
00000300: daac 363d c990 dac1 d374 d93c 9964 1fbd
00000310: 1107 933b 12ba 823d 890a 8fc1 114a 3fbd
00000320: c774 89bd 1bd1 f7bc 384e eab9 154d 37bd
00000330: d62b dd3c 6a72 863c a601 69bd 0ebd 62be
00000340: 743e 653d 41c3 72c1 dbd6 f73d f2ef 393b
00000350: 34c7 8e39 409d 35bd 6ed5 953d 50ff fa3c
00000360: cf9e adc1 f4cf 393b b18a 2e3c 9193 a23d
00000370: 69cb d7bc 29b3 a5c1 8aca c7be 2f3a 103c
00000380: f70e 03be ea1f 71bd 8efa a4c1 a733 14bd
00000390: 4ff1 713c bb22 e3bd 1db6 babc 5084 ef3c
000003a0: b949 39b9 c691 77bd 4228 ecbd 3e5b 29bd
000003b0: ee18 b3bd 2339 963c fb87 8fc1 f76d fbbc
000003c0: b23b 4fbc c452 47bd f6f3 c03b 09a1 1a3d
000003d0: 7a53 cfbd 8942 16bd c9bc 5abf 18c5 2abd
000003e0: b171 04bd ed7d 8dbd 4421 473b 5142 24bf
000003f0: ea8c 563d 0bf4 71bb f7e5 10bf 91b2 1ebe
0.27720812 0.0053654416 0.0149512 0.020936655 0.07861026 0.03170762 0.005386083 0.35374117
-0.0045399973 0.023566153 -0.004245288 -0.0063964995 -0.012089692 0.010724635 0.017254183 0.06522489
-0.0028074523 0.6295222 0.013633238 0.1890408 0.018362423 0.19415024 0.0016936731 -0.028627027
0.5048514 0.28893793 0.16362435 0.013423589 -0.033579137 0.0014236462 0.17040291 -6.336481
-0.13075626 -0.6745549 0.2324659 -0.852397 -0.011912008 0.066887766 -0.8902833 0.44383144
0.008215684 -0.007413084 -0.089301616 -0.17709193 -0.025256254 -0.72867835 0.0058401395 0.0077722273
-0.14824559 0.08451789 0.10683471 0.04093123 -0.88354117 0.015108435 -0.02471292 0.0026651667
0.008496881 -0.63585997 -0.024944764 -0.21071166 0.009181709 0.01135128 -0.35730395 -3.6795974
-0.065849595 -6.472464 -0.03251626 -0.05173069 0.007582484 -0.11947683 -0.008073415 -0.026859064
-1.046716 -0.90897036 0.014988085 -0.23907304 -0.029783458 -0.5035622 -0.33619237 -0.16354369
0.12898643 -0.07238325 0.014283526 -0.0053538587 -0.022772022 -0.07099513 -0.2985152 -6.3841124
0.024699293 -0.48604143 0.14868012 -0.0031246278 0.06604186 -0.07056936 -0.73628825 -0.52987975
-0.0009626905 0.12609956 -0.00018940274 -1.7625151 0.5507574 -0.0008310905 0.3170671 0.036703296
0.015123244 0.0865162 -0.0080396095 -0.58134407 0.049464718 -0.11020518 0.053498127 -0.0016864075
0.0017737075 0.5382496 0.018747786 -0.22142972 -0.10256511 0.08162459 0.024199018 -0.0077950982
-10.621592 -2.5534582 -0.5890725 0.15532187 -0.007391611 0.019090286 0.0022861257 -0.02365924
-72.974174 -0.048533868 -0.018488145 0.0071744425 0.23111707 -0.75293916 -0.012619234 0.003062971
-0.0027126665 -0.08043277 -0.6463999 -0.033544265 -14.102749 -57.381207 -98.1885 -0.008498106
0.001510979 -0.009766931 -0.024977986 -0.01908349 -0.3186535 -0.519099 -0.0056158043 0.030314665
-0.078335054 -0.064784944 -1.7386423 -0.244633 -0.022631537 -2.7313876 0.02496538 -0.4297904
-0.05113437 -0.009770558 -2.612464 -0.09070791 -0.016780045 -0.070737466 -0.015004433 -5.5592737
-0.09830129 -0.64963394 0.49942228 -0.16479503 0.026186984 -0.056492433 -6.8935857 -3.448345
-0.9777278 -0.1546797 -0.010771924 -0.010199393 0.06965877 -0.006956835 -17.621283 -0.3900553
-0.03255952 -0.20818198 0.0146487765 -0.060888834 -0.013190868 -0.5760916 0.008073039 0.00078889553
0.044598438 -27.320696 0.026544964 -0.038914297 0.0044869264 0.06383146 -17.880144 -0.046701495
-0.06711727 -0.030251076 -0.00044690236 -0.044751246 0.026998442 0.016411979 -0.056886338 -0.22142431
0.055967763 -15.172669 0.12101527 0.0028371778 0.00027232768 -0.04433942 0.07316099 0.03063932
-21.702543 0.002835271 0.010653184 0.07938302 -0.02634211 -20.71248 -0.39021713 0.008802935
-0.12798677 -0.058868326 -20.622341 -0.036182072 0.014767005 -0.11090609 -0.022791917 0.029237896
-0.00017670439 -0.060441755 -0.11531116 -0.04134678 -0.08744989 0.018337792 -17.941397 -0.030692084
-0.01264851 -0.048662916 0.0058884574 0.03775123 -0.10123344 -0.036684547 -0.85444313 -0.04169187
-0.032334987 -0.06908784 0.0030384818 -0.6416369 0.05238048 -0.0036919143 -0.566009 -0.15497805

sequential_3/dense_15/MatMul f4 [26, 15]
00000000: badd 0cbf 46bf a1be dc56 88bf fef4 47bf
00000010: 1b09 61bf 3e68 89bf 4e48 5cbf e6e4 48bf
00000020: 1c97 473e d2c4 79bf 9868 fcbe 3c23 e0be
00000030: c062 b0be 1486 91be 30d7 79be 657b 1ac0
00000040: 7463 39bf cb9a 73bf f652 63bf a3a9 96bf
00000050: e9e7 87bf 9df4 25bf d464 b4be c01b 933d
00000060: fe8b 0bbf d8ea 17bf 495e 843e ae90 0d3e
00000070: 6595 9fbf bd77 68be 56ef 1dbf ed03 10bf
00000080: a9a0 87bf b288 41bf c40a 92bf 61d3 8fbf
00000090: ccf7 3bbf 6412 18bf 9769 e7be 9219 34bf
000000a0: 4b5e e8be a06b b1be 59b0 8ebe 6769 94bf
000000b0: 89e1 a8be 603f 0fbf a953 0fbf 47c7 7abf
000000c0: ab9a 42bf 07c6 9fbf 514c 2fbf 70f5 60bf
000000d0: 3efe 9fbe baf8 283c 344e 5abf ec38 44be
000000e0: 217b e1be fd45 bebe a2fd 04bf 6106 fdbe
000000f0: 12c6 26bf 88ed 59bf dd4b 90bf 9f75 78bf
00000100: 79e0 94bf c276 93bf bc95 36bf 201c 56bf
00000110: d55d ef3e a373 70bf 149e 0abf 5d42 b93d
00000120: 2805 8abc d53e babe 62e3 d8be cdc9 b4bf
00000130: e4e7 40bf f7fa 85bf f0bb 54bf 8805 aabf
00000140: 75a8 8dbf d823 32bf 5a54 34bf c179 e8be
00000150: d576 4ebf b03f 13bf 9bf6 d4be 0804 0b3e
00000160: 6aa3 3cbe 3f4e 5cbe 74bf 43bf c9ce 92bd
00000170: 5b38 44bf 075b 87bf 8854 98bf d38c 8fbf
00000180: 48a4 3bbe 21b2 f4be 7446 17bf 35ac 72bf
00000190: a1bf bebe c50b 25be 0ec6 9abe 33bd 91be
000001a0: 5d00 12bf 0e96 1bbf a216 14bf c655 31bf
000001b0: 437c 37bf 8d2e 9ebf 4a86 3bbf a14a 76be
000001c0: 8972 dcbe f2da 0bbf ad99 82bf b5c2 09bf
000001d0: a6e0 95be 8d88 bfbe 534b 9ebe 4ded ddbe
000001e0: 2f52 09bf cca2 29bf 3f72 3bbf 5200 45bf
000001f0: 8a43 95bf 7736 96bf 5c17 51bf d49d e1be
00000200: 8346 53be 5e9a 66bf 07e9 adbd 47d3 90bd
00000210: 5c6d 86bd dd60 a7be 6e42 90be 90d2 19bf
00000220: 815d 37bf 980f 6fbf 5610 43bf 6dc2 9ebf
00000230: d56b 86bf b2ac 49bf 9599 1ebf 4650 f4be
00000240: 74c8 76bf 4f9a fe3d 4e22 10be 54ad dbbe
00000250: 264a 94be 4b2b ddbe 81b5 bbbf a0c5 3ebf
00000260: b9b2 97be 0566 02c0 11fc 94bf d372 53bf
00000270: ae33 76be a5cf 46bf 0eed 933e 7259 4cbf
00000280: d2b0 11bf 16d6 ebbe 4c69 e2be 7b6d f2bd
00000290: 545d 20be f2e0 49bf 3337 043e 3473 9d3e
000002a0: 6a8d 3fbf 2a02 8abf 84e5 89bf e201 66bf
000002b0: 7559 2bbf 9ad2 a13e 3165 aebf d8c9 26bf
000002c0: a0c0 39be f7a4 41be 4994 83bf b751 27be
000002d0: 42cd 00bf 8b81 ecbe 663a 88bf b24b 40bf
000002e0: f0db 71bf 4eb5 88bf 208b 04bf 6fd8 2bbf
000002f0: d2b5 82be 0706 69bf 5192 e8be 83cc 05be
00000300: e429 81bc 5575 a3be fdfc 8ebe d467 fdbe
00000310: 3b72 e7be 90cb 86bf 019f 41bf c74a 5abf
00000320: 8713 7dbf 4cad edbe 6e0d 17bf ffb4 b9be
00000330: 8b83 4bbf b469 fcbe d34d 35be 8c13 56bd
00000340: fe5b aabe c1e0 3bbe 900e 09bf bf2a 5abf
00000350: 5e1a 7fbf caa1 47bf cb19 99bf 9da4 90bf
00000360: d09e 15bf 2d25 debe 42c9 82bc ac2d 40bf
00000370: ac2e 0dbf d473 dfbe 9210 dbbe 1f19 c8be
00000380: 3986 94be d063 31bf 0cd5 f8be 9ebb 8abf
00000390: 29fb 3dbf b2f9 52bf 3989 83bf 19b0 b6be
000003a0: 2ccf 7ebe 5f50 09bf 59c0 8fbf 0ed3 6dbe
000003b0: 50d5 a7be 4b46 84be b12f 84bf 5924 dabe
000003c0: 155e 17bf 969a 07bf 5227 86bf 755c 50bf
000003d0: 13a7 49bf 07cd 91bf 2903 bcbe a2b3 71be
000003e0: 9a7d 00bf 6a3e 88bf fe73 ecbe 7002 7ebe
000003f0: 1a29 89be a267 83bf 739d bcbe 7e8a 10bf
-0.5502583 -0.31591243 -1.0651507 -0.78108203 -0.8790452 -1.0734937 -0.8604783 -0.7847427
0.19491237 -0.9756595 -0.4929855 -0.43776882 -0.3445034 -0.28422606 -0.24398494 -2.4137814
-0.7241738 -0.9515807 -0.88798463 -1.1770519 -1.0617648 -0.64826375 -0.35233176 0.07183027
-0.54510486 -0.5934272 0.25853184 0.13824722 -1.2467467 -0.22701927 -0.6169332 -0.5625599
-1.0595905 -0.75599205 -1.1409535 -1.1236383 -0.73424983 -0.5940306 -0.45197746 -0.7035152
-0.4538444 -0.34652424 -0.27868918 -1.1594666 -0.3298457 -0.5595608 -0.5598703 -0.97960323
-0.76017255 -1.2482308 -0.68475825 -0.8787451 -0.3124866 0.010313207 -0.8527558 -0.19162339
-0.44039252 -0.37162772 -0.5194951 -0.4941893 -0.6514598 -0.8512807 -1.1273152 -0.97054476
-1.1631004 -1.1520617 -0.71322227 -0.83636665 0.46751276 -0.9392645 -0.5414746 0.09045861
-0.016848162 -0.36376062 -0.4236098 -1.4124085 -0.75353837 -1.0467213 -0.8309927 -1.3282938
-1.1067034 -0.69585943 -0.7044121 -0.4540539 -0.80650073 -0.57519054 -0.41594395 0.13575757
-0.18421713 -0.21514224 -0.7646401 -0.071683474 -0.7664849 -1.0574654 -1.1900797 -1.1214851
-0.18324387 -0.47792152 -0.5909188 -0.9479402 -0.37255576 -0.16117771 -0.3022923 -0.2846466
-0.57031804 -0.6077584 -0.57847035 -0.69271505 -0.71673983 -1.2357956 -0.73251784 -0.24051906
-0.43056133 -0.5463096 -1.0203148 -0.53812724 -0.29272956 -0.37408867 -0.30916843 -0.4334511
-0.5364103 -0.66264033 -0.732212 -0.76953614 -1.1661236 -1.1735371 -0.8167627 -0.44065726
-0.20632367 -0.90079296 -0.08491712 -0.07071548 -0.065638274 -0.32691088 -0.28175682 -0.6008692
-0.7162705 -0.9338317 -0.761968 -1.2403084 -1.0501658 -0.7877914 -0.619531 -0.47717494
-0.9639962 0.12431776 -0.14075586 -0.42905676 -0.2896282 -0.43197092 -1.4664766 -0.745203
-0.29628542 -2.0374768 -1.1639425 -0.8259708 -0.24043152 -0.7766059 0.28891796 -0.7982398
-0.5691043 -0.46061772 -0.4422096 -0.11837288 -0.15660602 -0.78858864 0.12911682 0.30751956
-0.74825156 -1.078191 -1.0773168 -0.8984662 -0.66933376 0.3160599 -1.3624631 -0.6515174
-0.18139887 -0.18910585 -1.0279628 -0.16339765 -0.503132 -0.46192583 -1.0642822 -0.751155
-0.94476223 -1.068033 -0.5177479 -0.67127126 -0.25529343 -0.9102482 -0.4542413 -0.13066296
-0.015767045 -0.31925455 -0.2792739 -0.49493277 -0.45204338 -1.0530872 -0.75633246 -0.8527035
-0.9885792 -0.46421278 -0.5900487 -0.36270902 -0.79497594 -0.49299395 -0.17705469 -0.052264735
-0.3327331 -0.18347456 -0.53537846 -0.85221475 -0.9964961 -0.77981246 -1.1960996 -1.1300236
-0.58445454 -0.43387738 -0.015965108 -0.7506969 -0.5514934 -0.43643057 -0.4278608 -0.39081666
-0.29008654 -0.69292927 -0.48600042 -1.0838506 -0.74211365 -0.82412255 -1.0276252 -0.35681227
-0.24883717 -0.5363826 -1.1230575 -0.23225042 -0.32779932 -0.2583488 -1.0327054 -0.42605856
-0.5912793 -0.52970254 -1.048075 -0.8139108 -0.7877056 -1.1390694 -0.3672116 -0.2360368
-0.5019165 -1.0644047 -0.46182245 -0.24805617 -0.2678917 -1.0266001 -0.36838874 -0.5646132
