Src_code/model/keypoint_classifier/model_versions/full_data_inacc/03/keypoint_classifier.tflite (tflite, 7272 bytes, 6 tensors)

dense_5/bias f4 [26]
0	0x3f6da6de	0.92832744
1	0xbfc6c168	-1.5527773
2	0x3e892f81	0.26794055
3	0x3f84c269	1.0371829
4	0xc098f498	-4.7798576
5	0xc072cf15	-3.7938893
6	0x4011f6f2	2.2806973
7	0x3f16cba8	0.58904505
8	0x406b08ef	3.6724203
9	0x40836897	4.1065173
10	0xc07ac298	-3.918127
11	0x40ccef99	6.4042478
12	0xbf15ee44	-0.5856669
13	0xbf98d047	-1.1938561
14	0xc103ff64	-8.249851
15	0x3f7bff8b	0.984368
16	0xc0024acf	-2.035816
17	0x3f484d54	0.78242993
18	0xc09b9695	-4.8621316
19	0xbfaccfd7	-1.3500928
20	0x40320fad	2.7822068
21	0x40a18289	5.0471845
22	0x3ffe61a9	1.9873554
23	0x40166209	2.3497336
24	0x402586b6	2.586347
25	0xc094f22d	-4.6545625

dense_4/bias f4 [10]
0	0x402b1abe	2.6735072
1	0x40931cb0	4.597252
2	0x3f80c93d	1.0061413
3	0x408ad0a3	4.3379683
4	0x3f77b2e7	0.9675736
5	0x3ef24600	0.4731903
6	0x400e8811	2.2270548
7	0x4087b7a8	4.241169
8	0xc06125a9	-3.5179236
9	0x40959cea	4.6754045

dense_3/bias f4 [20]
0	0x3fd26343	1.6436542
1	0xbf1171c5	-0.56814224
2	0xbec70651	-0.38872007
3	0xc007e88d	-2.1235688
4	0xbfec583e	-1.8464429
5	0xbff10781	-1.8830415
6	0xbf6b7958	-0.9198203
7	0xbe8e9dcc	-0.27854764
8	0xbfc34fc2	-1.5258715
9	0xc030335d	-2.753135
10	0xbcb75ab1	-0.022382112
11	0xbfb40593	-1.4064201
12	0xbf8c540f	-1.0963153
13	0x3f9135b6	1.1344516
14	0xbf724bb0	-0.9464674
15	0xbff19862	-1.8874629
16	0xbeff673b	-0.49883446
17	0xbf8e626a	-1.1123784
18	0xbfe9654e	-1.8234041
19	0x3ee6b71e	0.45061582

sequential_1/dense_3/MatMul f4 [20, 42]
0	0xbdf2c66a	-0.11854251
1	0x3dd47b5c	0.103750914
2	0xbe5b549a	-0.21418992
3	0x400684d2	2.1018567
4	0x3d02c107	0.031922366
5	0x3f573b1e	0.8407458
6	0x3f4d6adb	0.80241174
7	0x3f02c0ee	0.5107564
8	0x3f54268d	0.82871324
9	0x3e8f600c	0.28002965
10	0xbed15b4f	-0.40889975
11	0xbdd5e058	-0.10443181
12	0xbe970b8e	-0.29501003
13	0x3dd6b201	0.1048317
14	0xbd7765db	-0.06039987
15	0x3df9103b	0.12161299
16	0xb94eb21c	-0.00019712042
17	0x3e29c419	0.16578712
18	0xbf6a1d16	-0.9145063
19	0xbe14886c	-0.14505166
20	0xbe90617e	-0.2819938
21	0x3e0c24a8	0.13685858
22	0x3e22d9f2	0.15903452
23	0x3e97bb94	0.29635298
24	0x3f171d8c	0.5902946
25	0x3eae0cf7	0.33994266
26	0xbf3e375e	-0.74303234
27	0xbe3a100b	-0.18170182
28	0x3f1b437e	0.6064986
29	0x3d8ae12b	0.06781229
30	0x3f845e8f	1.0341357
31	0x3e545f6d	0.20739527
32	0x3faf03d8	1.3673048
33	0x3eba33ba	0.3636759
34	0x3ecd762e	0.40129226
35	0xbe839744	-0.25701344
36	0x3f0511cb	0.51980275
37	0xbc3933d9	-0.011303865
38	0x3f7207e9	0.9454332
39	0x3e0f18e9	0.13974346
40	0x3fbb0e78	1.461379
41	0x3e663376	0.22480568
42	0x3e869c10	0.2629094
43	0xbcc21e10	-0.023695976
44	0xbf8825f6	-1.0636585
45	0x3ec260b9	0.3796442
46	0xbf14e494	-0.5816128
47	0x3ef3a47b	0.47586426
48	0xbec3886f	-0.38190028
49	0x3efcf1f8	0.49403358
50	0xbe25246a	-0.16127172
51	0x3ed2ea8d	0.41194573
52	0xbe91ee1c	-0.28501976
53	0xbf71822b	-0.94339246
54	0x3d8697e4	0.065719396
55	0x3e0c066a	0.13674322
56	0xbcd5a749	-0.026080744
57	0x3edd82bd	0.43263808
58	0x3d8460eb	0.06463798
59	0x3f1ff23a	0.62478983
60	0xbec68abe	-0.38777727
61	0xbf9876d6	-1.1911266
62	0x3de9e594	0.11420742
63	0x3dfd3eef	0.12365519
64	0x3d3ed0ea	0.046585955
65	0x3ef3c0c3	0.47608003
66	0xbd752b7a	-0.059855916
67	0x3f54630b	0.8296363
68	0xbe89c4ab	-0.26907858
69	0xbfc4c591	-1.5372792
70	0x3d50e99d	0.05100404
71	0x3e35bc88	0.177477
72	0xbd9cbb5f	-0.07652926
73	0x3f036f40	0.5134163
74	0xbe63d7a8	-0.22250235
75	0x3f64e647	0.89413875
76	0xbe05caa2	-0.1306558
77	0xbfb3c749	-1.4045192
78	0x3cf30a7f	0.02966809
79	0x3e5d0977	0.21585642
80	0x3d8d387a	0.06895538
81	0x3ed4a2c4	0.4153043
82	0x3d56e4fb	0.052464467
83	0x3f1c8302	0.611374
84	0xbe5fe65d	-0.2186522
85	0xbe185724	-0.14876992
86	0x3e88214f	0.26587912
87	0x3feb1966	1.8367126
88	0x3e956f2e	0.29186386
89	0x3f1d26df	0.6138744
90	0x3f0e1fc3	0.55517215
91	0x3e696cdc	0.22795433
92	0x3f37b28c	0.71756816
93	0x3cc1bd96	0.023649972
94	0xbe0afe1d	-0.13573499
95	0xbcbe8392	-0.023256097
96	0x3dc91e50	0.09820235
97	0xbd0f8ab6	-0.035044394
98	0x3e209716	0.15682635
99	0xbe85d102	-0.26136023
100	0x3e46f6c8	0.19430077
101	0xbefd2e75	-0.49449506
102	0xbe9bc3cb	-0.30422816
103	0x3b38815c	0.0028153276
104	0x3de6deb4	0.11272946
105	0x3d9293c2	0.07157089
106	0x3ea6fd50	0.32615137
107	0x3e67d9c9	0.22641672
108	0x3edb33f8	0.42813087
109	0x3e9a3d46	0.30124873
110	0xbea8d889	-0.32977703
111	0xbcc623de	-0.024187025
112	0x3fb5d8b2	1.4206755
113	0x3967423e	0.00022054554
114	0x3fd227ba	1.6418374
115	0x3d65eb52	0.056132622
116	0x3fcd9d7f	1.6063689
117	0x3dd0341f	0.10166191
118	0x3ed29b4a	0.411341
119	0xbdcb9d9a	-0.099421695
120	0x3f8cbe2a	1.0995533
121	0xbde3dc6c	-0.111260265
122	0x3fab6311	1.3389608
123	0xbe1547c0	-0.14578152
124	0x3fae926d	1.3638436
125	0x3c0486a5	0.008088742
126	0x3e12ddb8	0.14342391
127	0x3de279fc	0.11058423
128	0x3f7f619c	0.99758315
129	0xbf711941	-0.9417916
130	0x3f095561	0.536459
131	0xbf01c923	-0.50697535
132	0x3e36f556	0.17867026
133	0xbee73487	-0.45157263
134	0xbd2c8192	-0.042115755
135	0x3c4a4c4f	0.012347295
136	0x3f99e6bd	1.2023541
137	0xbe85354b	-0.26017222
138	0x3f295351	0.66142756
139	0xbdf71874	-0.12065211
140	0x3e6d7f9b	0.23193209
141	0x3e246790	0.16055131
142	0x3dc2df14	0.09515205
143	0x3e7a2032	0.24426344
144	0x3fa9f856	1.3278911
145	0xbe8551c2	-0.2603894
146	0x3f1df064	0.6169493
147	0xbd81c5cd	-0.06336556
148	0x3e06181f	0.13095139
149	0x3e07dbfa	0.13267508
150	0xbe16135e	-0.14655825
151	0x3e32b1eb	0.17450683
152	0xbde1592c	-0.11003336
153	0xbe8ba8a2	-0.27277094
154	0xbb9fd640	-0.0048778355
155	0xbe15cdb0	-0.14629245
156	0xbe80b979	-0.25141504
157	0x3e304c27	0.1721655
158	0xbee16e92	-0.4402967
159	0x3e87baa1	0.26509574
160	0xbf84065a	-1.0314438
161	0xbea5d84d	-0.32391587
162	0xbec0b4dd	-0.37637988
163	0xbe40f043	-0.18841653
164	0xbece1c03	-0.40255746
165	0xbd1e8c37	-0.038707938
166	0xbf132bd0	-0.5748873
167	0x3bcde642	0.0062835524
168	0xbe8032ab	-0.25038657
169	0xbe8bbde7	-0.27293321
170	0x3f53a256	0.8266958
171	0xbf8fb098	-1.1225767
172	0x3f3e8fc2	0.74438107
173	0xbf01a5a6	-0.50643384
174	0x400064e0	2.006157
175	0xbea2e05d	-0.318118
176	0x3fc5fca9	1.5467731
177	0xbe2d106c	-0.16900796
178	0x3eb2ce7c	0.3492316
179	0xbe54639a	-0.2074112
180	0x3dfdbeb6	0.12389891
181	0xbdc29024	-0.09500149
182	0xbd9f2342	-0.07770397
183	0xbddfadf4	-0.10921851
184	0x3d42cdd8	0.04755959
185	0xbd4e054b	-0.050298017
186	0x3cd918e5	0.026501128
187	0xbe24820c	-0.16065234
188	0x3bf6d18a	0.007532303
189	0x3cd968c3	0.026539212
190	0x3eb4448e	0.35208553
191	0x3e05a39a	0.1305069
192	0x3f2241e6	0.63381803
193	0x3e1873f4	0.14887983
194	0xbf172329	-0.59038025
195	0xbd05a52c	-0.032628223
196	0xbf28c9f3	-0.6593315
197	0x3dfbcdb2	0.12295093
198	0xbf6a83b5	-0.9160722
199	0x3e80cc30	0.25155783
200	0xbf338b5f	-0.7013454
201	0x3e4dc87c	0.2009601
202	0xbf503251	-0.81326777
203	0x3e1da9ab	0.15396754
204	0xbf51407f	-0.8173904
205	0x3e63ba3a	0.22239009
206	0xbf77ff68	-0.96874094
207	0x3ea1a7ec	0.31573427
208	0xbf8302b4	-1.02352
209	0x3eec56d3	0.46159992
210	0xbe77f670	-0.24215102
211	0xbe7f1d4c	-0.2491352
212	0x3ecdca5b	0.40193447
213	0xbf3350f9	-0.7004543
214	0x3e4c6569	0.1996056
215	0xbe02c895	-0.12771828
216	0x3e214cee	0.15752003
217	0x3b90992a	0.00441279
218	0x3c0f85b8	0.008759908
219	0x3dbc08ae	0.09181343
220	0xbd459793	-0.048240256
221	0xbd404863	-0.046944033
222	0xbe136885	-0.1439534
223	0xbc2066ad	-0.009790105
224	0xbbcfcb0a	-0.006341343
225	0x3d7f7585	0.062367935
226	0x3d83c512	0.064340726
227	0x3dab727f	0.08371448
228	0xbe697918	-0.228001
229	0x3b2b1d78	0.0026110094
230	0xbe75ebba	-0.24015704
231	0x3d3ccf84	0.04609634
232	0xbc382cad	-0.01124112
233	0x3dccdf9f	0.1000359
234	0x3e1ae5ea	0.15126768
235	0x3d9f644a	0.077828005
236	0xbe2ad742	-0.16683677
237	0x3ca91931	0.020641895
238	0xbe69220b	-0.22766893
239	0x3cb6fe49	0.02233805
240	0x3d917768	0.07102853
241	0x3dcbd213	0.09952178
242	0x3e5fe1db	0.21863501
243	0x3e3afbf5	0.18260176
244	0xbdce7163	-0.100802206
245	0x3da8b116	0.082369015
246	0xbe2577b2	-0.16158941
247	0x3d5ce27f	0.05392694
248	0xbd64f6f4	-0.055899575
249	0x3ea30f10	0.3184743
250	0x3db75f42	0.08953716
251	0xc05ca9da	-3.447867
252	0x3dbbabb4	0.09163609
253	0x3dca5e48	0.09881264
254	0x3cf71ee6	0.0301661
255	0x3eec753e	0.461832

sequential_1/dense_4/MatMul f4 [10, 20]
0	0xbf09a622	-0.53769124
1	0xbf0c96a2	-0.5491735
2	0x3e1e6caa	0.1547114
3	0x3f65f5ac	0.8982799
4	0x3fafc392	1.3731558
5	0xbe82d645	-0.255541
6	0xbf0a315b	-0.5398156
7	0x3dd4a557	0.103830986
8	0xbe62f9e4	-0.22165638
9	0x3f94d3ba	1.1627114
10	0x3ed5f3c8	0.41787553
11	0x3f090a65	0.53531486
12	0x3e9f8b0d	0.31160775
13	0xbd94cd72	-0.07265748
14	0x3ecd4d0a	0.4009784
15	0x3e456d59	0.19279994
16	0x3fe5ff4d	1.7968537
17	0x3fe70bee	1.8050516
18	0x3f97b817	1.1853055
19	0x3dd1fed1	0.102536805
20	0x3e090a9c	0.13382953
21	0x3f0a5cd8	0.5404792
22	0x3e1ac84d	0.15115471
23	0x3f370189	0.7148672
24	0xbddd667e	-0.108105645
25	0xbfe92761	-1.8215142
26	0xbd054349	-0.03253487
27	0x3dba8bf6	0.09108727
28	0xbf2a4e49	-0.66525704
29	0x3e2e59e9	0.17026486
30	0x3ce86bb7	0.028371675
31	0xbe5cd78d	-0.21566601
32	0xbe01c2d0	-0.12671971
33	0x3eaccedb	0.33751568
34	0x3e663239	0.22480096
35	0x3edfc6fe	0.43706506
36	0x3e5d471c	0.21609157
37	0x3ccfdafe	0.025372978
38	0x402304fa	2.5471787
39	0x3e976237	0.2956712
40	0x3dc9b5ab	0.098491035
41	0x3f0b52ae	0.54423034
42	0x3de9ddc1	0.11419249
43	0xbc2d78cc	-0.010587882
44	0xbd79d2e1	-0.060992125
45	0xbdddce48	-0.10830361
46	0x400d3410	2.2063026
47	0x3e396746	0.18105802
48	0x3dcfbc2f	0.10143315
49	0x3dc363b5	0.09540502
50	0x3f447713	0.7674419
51	0x3e9f99c0	0.3117199
52	0x3b7d2bdf	0.0038630886
53	0x3ea39d8f	0.31956145
54	0xbf05eeca	-0.5231749
55	0x40005907	2.0054338
56	0x3f9be5a9	1.2179462
57	0x3fbe0c0b	1.4847425
58	0xbad2e9ba	-0.0016091384
59	0x3ef110b4	0.47083056
60	0xbe6d34b7	-0.2316464
61	0xbf8870ec	-1.0659461
62	0x3ee2e065	0.44311824
63	0x3e822632	0.25419766
64	0xbe1dd14b	-0.1541187
65	0xbf0e16a4	-0.55503297
66	0xbda90572	-0.08252992
67	0xbfbb1357	-1.4615277
68	0xbea8cf26	-0.32970542
69	0xbda24464	-0.07923201
70	0xc044135e	-3.063682
71	0x3c3f2f0b	0.011668931
72	0x3ec613df	0.38687035
73	0xbf401439	-0.7503086
74	0xbe4b26b6	-0.19838986
75	0x3ec8d0e9	0.39221886
76	0xbf50ed7b	-0.81612366
77	0x3e75b093	0.23993139
78	0x3f3c9a1b	0.73672646
79	0xbf48c6aa	-0.7842814
80	0x3edb2688	0.42802835
81	0x3eb412d5	0.35170618
82	0x3f18a1d9	0.5962196
83	0x4019ef23	2.4052207
84	0x3f2a28fa	0.66468775
85	0x3f8aba3b	1.0838083
86	0x3f8f20e1	1.1181909
87	0xbcffcc5c	-0.031225376
88	0x3f4fdfa4	0.81200624
89	0x3f42bf29	0.7607294
90	0x3c851323	0.016244477
91	0x3f11669e	0.56797206
92	0x3ff7b382	1.9351656
93	0xbbbee626	-0.0058257757
94	0xbe3a9989	-0.18222632
95	0xbeb6c7b7	-0.35699245
96	0x3ed87877	0.42279407
97	0xbbb202ef	-0.0054324786
98	0x3f4787bf	0.7794151
99	0x3c73bd26	0.0148766395
100	0xbe70ad49	-0.23503603
101	0x3ea4b64d	0.32170334
102	0x3e3387ad	0.17532225
103	0x3f7b3d77	0.9814066
104	0x3f69462d	0.91122705
105	0x40526c33	3.287854
106	0x3ef71329	0.48256806
107	0x3f21f9b4	0.6327164
108	0x400197d6	2.0248923
109	0x3fc7551a	1.5572846
110	0x3f068d24	0.52559114
111	0x3fc8eaa3	1.5696605
112	0x3df8a7dc	0.12141392
113	0x3ec84bfc	0.3912047
114	0x3ebf789f	0.37396714
115	0x3eb76a0f	0.35823104
116	0x3eabca6f	0.33552882
117	0x3e7198ff	0.2359352
118	0x3fb4672f	1.4093989
119	0x3ebe62d4	0.37184775
120	0x3eba26d4	0.36357749
121	0xbf6c93e0	-0.9241314
122	0x3eced14e	0.40394062
123	0xbdaf86b2	-0.08570613
124	0x3f56248b	0.8364951
125	0x3f9ad170	1.2095165
126	0x3e0de047	0.13855086
127	0xba10ceab	-0.000552396
128	0x3f1d5944	0.61464334
129	0x3f5879d8	0.8456092
130	0x3d765e9b	0.060148817
131	0xbd29a6f6	-0.041418992
132	0x3f384585	0.7198108
133	0xc017dd13	-2.3728683
134	0x40009c06	2.009523
135	0x3e36534c	0.17805213
136	0x3da97386	0.082739875
137	0x3f43ebd1	0.765317
138	0x40219ad4	2.525075
139	0xbfdaa8b0	-1.7082729
140	0xbd14a875	-0.036293466
141	0xbdde654d	-0.10859165
142	0x3d056999	0.03257141
143	0x3d42bd26	0.047543667
144	0x3c683f7f	0.014175295
145	0x3df93d52	0.12169899
146	0xc10451cd	-8.269971
147	0x3dc8826e	0.097905025
148	0x3e171174	0.14752752
149	0x3e3c3e5a	0.1838316
150	0xbf5eef3f	-0.8708381
151	0x3e356ae7	0.17716561
152	0x3de8dcb9	0.113702245
153	0x3cd4e793	0.02598933
154	0xbcc6b3f2	-0.024255726
155	0x3e20025c	0.156259
156	0xbdf5a73a	-0.119947866
157	0x3d7694ec	0.060200617
158	0x3f1e8fdb	0.61938256
159	0x3cd13cd5	0.025541702
160	0xbf33dbbf	-0.7025718
161	0xbea6903c	-0.32531917
162	0x3fc89b91	1.5672475
163	0xbe788082	-0.24267772
164	0xbe0a34bf	-0.13496684
165	0xbef9d22a	-0.48793155
166	0x3ce235f5	0.02761362
167	0x3e829d92	0.25510842
168	0xbe748bfb	-0.23881523
169	0xbebb9f7e	-0.3664512
170	0x3f3db394	0.7410214
171	0x400b7974	2.179288
172	0xbd03abbe	-0.032146208
173	0xbb844886	-0.004036966
174	0xbe10a199	-0.14124145
175	0x3fbd97bb	1.481193
176	0x3c86355b	0.016382864
177	0x3d041227	0.032243874
178	0xbda8e4cf	-0.08246767
179	0x3c0bf688	0.008542664
180	0xbff5dc60	-1.9207878
181	0xbfd620ea	-1.6728795
182	0xbf97dba3	-1.1863903
183	0xbd22709d	-0.039658178
184	0x3df61a74	0.12016764
185	0x3eff9365	0.4991714
186	0x3d092681	0.033483986
187	0x3d793fa8	0.060851723
188	0x3e903165	0.28162685
189	0x3f120c80	0.57050323
190	0xbec1787b	-0.37787232
191	0xbe8b1368	-0.27163243
192	0xbc536f13	-0.0129049
193	0xbc36da7a	-0.011160487
194	0xbc4e7dfc	-0.012603279
195	0x3fadb3be	1.3570478
196	0x3df9b1d8	0.12192124
197	0x3ee1718e	0.44031948
198	0x40142c47	2.3152025
199	0x3d85be7a	0.06530471

sequential_1/dense_5/MatMul f4 [26, 10]
0	0x3d85eb78	0.06539053
1	0x3e043036	0.12909016
2	0xbfa43db0	-1.2831326
3	0xbeaa8846	-0.33307093
4	0x3ed1cc41	0.40976146
5	0x3e102335	0.1407593
6	0x3da214ad	0.079141
7	0xbf9eb414	-1.2398705
8	0xbb0567fa	-0.0020356164
9	0xbeb5da85	-0.3551828
10	0xbfd7ad6f	-1.6849803
11	0xc055924c	-3.3370543
12	0x3f8c4091	1.0957204
13	0x3f936346	1.1514671
14	0x3ef3aba9	0.47591904
15	0xbeb90e52	-0.36143738
16	0xbfb70e44	-1.4301229
17	0x405bc6e3	3.434014
18	0x3e2b9490	0.16755891
19	0xbeb721ac	-0.35767877
20	0xbf4620d4	-0.7739384
21	0xc025d31e	-2.5910106
22	0x3f81497e	1.0100553
23	0xbf915282	-1.1353304
24	0xbd86a340	-0.06574106
25	0xbf8582d2	-1.0430548
26	0x3fb83077	1.438979
27	0x3fff22ca	1.9932492
28	0x3f3d8c15	0.74041873
29	0xbf0756ae	-0.5286664
30	0xbfe5a80b	-1.7941908
31	0xbf83ef09	-1.0307323
32	0x3eaaa6fb	0.3333052
33	0x3fa38bb9	1.2777015
34	0xbf7c8060	-0.98633385
35	0x3ee6b0a3	0.45056638
36	0x3f8eb43f	1.1148757
37	0x3da18374	0.07886401
38	0xbe782f3f	-0.24236773
39	0xbf91df52	-1.1396277
40	0xbe2e2229	-0.17005219
41	0xbf6b63f5	-0.919494
42	0x3e8bd09a	0.27307588
43	0x3f5be489	0.8589559
44	0x3eac74e2	0.33682925
45	0x3f00fcee	0.5038594
46	0xbf643607	-0.8914494
47	0x3ec65f1a	0.38744432
48	0xbf630952	-0.88686097
49	0xbe387dd0	-0.18016744
50	0xbe6d27b3	-0.23159675
51	0xbf9e166c	-1.2350593
52	0x3f2790b3	0.6545517
53	0xbff4cb50	-1.9124546
54	0x3ee6d15f	0.45081612
55	0xbed1bb52	-0.40963227
56	0x3f108419	0.56451565
57	0x3fca0c18	1.5784941
58	0x3f127b36	0.57219255
59	0xbbde5c40	-0.0067858994
60	0x3fc7daab	1.5613607
61	0x3f6245bd	0.8838766
62	0xbfffb4d8	-1.9977064
63	0xbfd8963e	-1.692085
64	0xc01e2309	-2.4708884
65	0x3ec3e1e0	0.38258266
66	0xbf673913	-0.90321463
67	0xbfbdbb31	-1.4822751
68	0x3eca97d6	0.39568967
69	0x3ebc5b79	0.36788538
70	0x3e9568e2	0.29181582
71	0x3eb87df2	0.3603359
72	0xbe0bf081	-0.13665964
73	0xbfd916f8	-1.6960135
74	0xbfc26ce9	-1.5189487
75	0xbc9d25a6	-0.019182991
76	0xbed43754	-0.41448462
77	0xbf611207	-0.8791813
78	0x3e744f7c	0.23858446
79	0x3f16cde4	0.58907914
80	0xbf64da05	-0.8939517
81	0xbe79bc68	-0.24388278
82	0xbf455dc7	-0.7709622
83	0xbf3e3c2a	-0.74310553
84	0x3edf72ca	0.43642265
85	0x3f05339a	0.5203186
86	0xbef3871c	-0.47564018
87	0xbf37199a	-0.7152344
88	0x3f114286	0.5674213
89	0x3ea1ee07	0.31626913
90	0x3e0b0467	0.13575898
91	0xbf460f4b	-0.77367085
92	0xbf02a93f	-0.510395
93	0xbfebc4f4	-1.841948
94	0x3e5a9c7d	0.21348758
95	0x3edcecc3	0.43149385
96	0xbf659ca3	-0.89692134
97	0xbf4c4b32	-0.7980224
98	0x3eaba0f4	0.33521235
99	0x3f055a65	0.52091056
100	0x3f7d975c	0.9905908
101	0x3f369bb6	0.71331346
102	0xbf387c12	-0.72064316
103	0xbf682779	-0.9068523
104	0xbfa2fc31	-1.2733213
105	0xc026fcd3	-2.6091812
106	0xbfea5c78	-1.8309469
107	0xbfee3956	-1.8611248
108	0xc109b2db	-8.606166
109	0x402c3e22	2.6912923
110	0x3fc2e00e	1.5224626
111	0xbe5d64ec	-0.2162053
112	0xbfdf81b4	-1.7461457
113	0x3f394374	0.7236855
114	0x3e32b248	0.17450821
115	0xbff42e1f	-1.9076575
116	0x3e58aa9b	0.21158831
117	0xbffc6ba0	-1.9720345
118	0xbfe6390d	-1.798616
119	0xbfd5b682	-1.6696322
120	0x3d77f1b9	0.06053326
121	0x3eaa0c6d	0.33212605
122	0xbe43a99d	-0.19107671
123	0xbfc4a404	-1.5362554
124	0x3f12455f	0.571371
125	0xbd9cf31f	-0.07663559
126	0x3d93772e	0.07200466
127	0xbe1a56bf	-0.15072154
128	0x3e1b30c9	0.15155329
129	0xbf44a794	-0.76818204
130	0x3db4cbac	0.0882791
131	0x3e56686f	0.20938276
132	0xbe075a83	-0.13218121
133	0xbfde25b9	-1.7355262
134	0x3f0d6a0d	0.55239946
135	0x3c4ed780	0.012624621
136	0x3da52ba0	0.080649614
137	0x3ce0976e	0.027415957
138	0x3e4b6791	0.19863726
139	0xbf6ddc12	-0.92913926
140	0xbf5dd183	-0.86647815
141	0xbf3f7688	-0.7479024
142	0x3f441cd5	0.76606494
143	0x3e9c9249	0.30580357
144	0xbece4cda	-0.40293008
145	0x3edc8d81	0.4307671
146	0x3f7f1b14	0.9965069
147	0x3fabea04	1.3430791
148	0xbe7e24b8	-0.24818695
149	0xbf81159f	-1.0084723
150	0x3ea4d987	0.3219721
151	0xbee08179	-0.4384878
152	0x3e9cbce2	0.30612856
153	0xbfb67e5e	-1.4257314
154	0xbf968a76	-1.1761005
155	0x3e94fec1	0.29100612
156	0xbeb0cd29	-0.34531525
157	0x3fb87511	1.4410726
158	0x3e0e9780	0.1392498
159	0xbfbd4c64	-1.4788938
160	0x3e307baf	0.17234682
161	0xbf034236	-0.51272905
162	0x3f19515b	0.59889764
163	0xbfbc54fb	-1.4713434
164	0xbf866906	-1.0500801
165	0x3e068390	0.13136125
166	0xbe834148	-0.25635743
167	0x40047bb2	2.0700498
168	0x3ec1c38c	0.37844503
169	0xbfc00a1d	-1.5003086
170	0xc09578fa	-4.6710176
171	0x3fbf60e0	1.4951439
172	0xbf7924c3	-0.9732172
173	0x3f169256	0.5881704
174	0xbef366e5	-0.4753944
175	0xbf7c1c0e	-0.9848031
176	0xbfe18fd5	-1.7622019
177	0xbf6027f0	-0.8756094
178	0x3fcefebc	1.6171489
179	0x3fea1729	1.8288318
180	0x3e91458c	0.28373373
181	0xbd535e3e	-0.05160355
182	0xbe04eb5c	-0.12980407
183	0x3ec4fe2a	0.38475162
184	0x3e8e9863	0.27850637
185	0x3e7f870c	0.2495386
186	0xbef41fcb	-0.47680506
187	0xbefed155	-0.49769083
188	0xbf03d244	-0.51492715
189	0xbe80f246	-0.2518484
190	0x3cc86861	0.024463834
191	0x3d0449f7	0.0322971
192	0xbf23b2d0	-0.6394472
193	0x3e0c1966	0.13681564
194	0x3ea0f22a	0.31434757
195	0x3e416075	0.18884452
196	0x3ec735b0	0.38908148
197	0xbf63c329	-0.88969666
198	0xbf1b7d46	-0.6073803
199	0xbf7af708	-0.9803319
200	0xbf311733	-0.69176024
201	0x3ea99ba1	0.33126548
202	0xbe751e93	-0.23937444
203	0x3fa90441	1.3204423
204	0xbff9c5eb	-1.9513525
205	0x3e9f5530	0.3111968
206	0xbffc6f60	-1.9721489
207	0xbfad843d	-1.3555981
208	0xbf6de974	-0.92934346
209	0x3e0b089b	0.13577501
210	0x3f1ea118	0.6196456
211	0x3f4891e0	0.7834759
212	0x3f306372	0.6890174
213	0xbf7df9e6	-0.9920944
214	0xc004e192	-2.0762677
215	0xc0740a7c	-3.81314
216	0xbfebf550	-1.8434238
217	0xbfbf9f08	-1.4970407
218	0xc0b7157f	-5.721374
219	0x3f29e28a	0.66361296
220	0x3e8d168f	0.27556273
221	0xc00054d1	-2.0051768
222	0x3f865433	1.0494446
223	0xbf67e669	-0.90585953
224	0x3f81d279	1.0142356
225	0xc01ebfa9	-2.480448
226	0xbfea6084	-1.8310704
227	0x3fb80bae	1.4378564
228	0x3f71677b	0.94298524
229	0x3ee7eb31	0.45296624
230	0x3e556a62	0.20841363
231	0xbe83d02b	-0.25744757
232	0xbf313226	-0.69217145
233	0x3f12b909	0.5731359
234	0xbdf62a0c	-0.120197386
235	0x3ec20106	0.37891406
236	0xbf332c9b	-0.6998994
237	0xbf9445fe	-1.158386
238	0xbf488a56	-0.78336084
239	0xbe8770b5	-0.26453176
240	0xbebd1bac	-0.36935174
241	0xbe0336c8	-0.12813866
242	0xbfb855d4	-1.4401193
243	0xc0009bf3	-2.0095184
244	0x3f53b20b	0.82693547
245	0x3deffd76	0.11718266
246	0x3e36c8e3	0.1785007
247	0xbf8ea70d	-1.114473
248	0x3f71a41a	0.94391024
249	0x3ea89e4e	0.32933277
250	0x3f9793c9	1.1841975
251	0x3f9a8493	1.2071708
252	0xbebd3025	-0.36950794
253	0x3d29b3a0	0.04143107
254	0x3f068bcd	0.5255707
255	0xc00ce701	-2.2015994
