Src_code/model/keypoint_classifier/model_versions/full_data_inacc/01/keypoint_classifier_01.tflite (tflite, 7288 bytes, 6 tensors)

dense_9/bias f4 [20]
00000000: 98d0 95c0 9e1e 7ec0 bf92 a7bf cad5 8bc0
00000010: b5e4 b5bf 06f0 cec0 e12d a73f 012b d83f
00000020: 6ee6 30c0 3122 97c0 376d dc3e 0732 39c0
00000030: 4e03 bebf 71b9 7ec0 6b0a f6bf ac82 6dc0
00000040: 75e1 883f 6667 b5bf adb4 7bc0 348d e93f
-4.681713 -3.9706187 -1.3091658 -4.3698473 -1.4210421 -6.4667997 1.3060876 1.6888124
-2.7640643 -4.7229238 0.43052074 -2.8936784 -1.4844759 -3.9800684 -1.9221929 -3.7111006
1.0693804 -1.417218 -3.9329026 1.8246217

dense_11/bias f4 [26]
00000000: 5cf1 0040 baa8 a73f 4397 89c0 70d0 2041
00000010: d570 c0c0 dd5e bbbf 9f3a dabf 17f9 d4bf
00000020: 8ae6 cfbf 19b7 d6bf 31ed 06c0 dd1a 03c0
00000030: d03d c6bf 9923 e8bf 7aeb f2bf 1ebb c0bf
00000040: b884 cfbf 6869 f1bf eafa 01c0 c583 d7bf
00000050: fc1f c7bf 474a f4bf 7cdc 12c0 03f2 dabf
00000060: f931 b4bf 288a fdbf
2.0147314 1.3098366 -4.2997146 10.050888 -6.0137734 -1.4638325 -1.704914 -1.6638516
-1.624223 -1.6774627 -2.108227 -2.0485146 -1.5487614 -1.8135864 -1.8978112 -1.5057104
-1.6212378 -1.8860292 -2.0309396 -1.6837088 -1.5556636 -1.9085168 -2.2947073 -1.7105106
-1.407775 -1.9807787

dense_10/bias f4 [10]
00000000: 9b75 8d40 a2b5 d940 f66b 0bc0 4796 b040
00000010: 8627 3840 f422 89c0 8148 c740 338c e43f
00000020: 5e2f 1c3f 57c0 d040
4.420606 6.803422 -2.1784644 5.5183444 2.8774123 -4.2855167 6.2276006 1.7855285
0.61009777 6.523479

sequential_3/dense_9/MatMul f4 [20, 42]
00000000: ded2 5bbe c6a2 8abe f694 26be b26e a8c0
00000010: 8aa4 c13d 0f29 82bf 4d8e eabc b45a 65be
00000020: 8bec 1cbc 969a 60be f325 ee3e 2c31 e6bd
00000030: 8acc 413d 780f 853b 1f9e 9bbd 84d8 8b3e
00000040: a855 ebbd a718 8a3d 5406 ff3e 7a6a eebc
00000050: 0bb9 8ebc aec8 0e3d 2b44 0bbe 2781 633e
00000060: 0989 40be 2ca3 4b3e ca6c 923e e40c a33d
00000070: 102e a73d 367a e43d e005 9bbd 49d6 873e
00000080: cae3 3cbd cd6a 763e fefe a5be 6d36 293e
00000090: 600d 893c 3a55 ecc0 cfb8 973d 14f6 833e
000000a0: 6df3 2b3e e22f b03e ab29 92be e0c5 703d
000000b0: 09c8 0b3f 3e99 1d40 aea7 5f3e d316 883f
000000c0: 3124 0a3e 695a 1a3f 8fe7 8b3d 850c 023f
000000d0: 2d56 273e 5243 f63e e618 d5bc e23b b93e
000000e0: 7012 e7bd 0291 bc3e e714 3bbe 6651 fcc0
000000f0: cea0 4c3e a2c3 c43e 3fc0 abbd 0a44 a43e
00000100: ba5b 07be 6371 6f3e 1415 25be 0256 bb3c
00000110: 3a2c 3bbd e342 b73e 0da5 0cbe acaa 823e
00000120: 9eb2 dcbc d568 bcba 4bce 1e3b 4854 34be
00000130: 6f4e febd d621 583e 2c9f 0cbe d03b 433c
00000140: bcf5 833d c75e cd3c 264e 2c3e 232a 51be
00000150: 1212 b3bd 3014 293e bf6c 803f 37c0 953e
00000160: cb1b 8e3e 6d76 a03c 2826 c53e 37b1 96bd
00000170: efa1 c23e e1eb 83bc 750d 093e db74 dc3e
00000180: ac68 813e ecc9 283e d9ca 503d 4f35 2c3e
00000190: 2b59 b5bd b0c3 c33e 0ba1 803c 66de a63e
000001a0: 58ef b33e 0bb7 c33d d883 763f afce d6bb
000001b0: 1b20 8f3f 32d8 02bd cc3b d6be acd2 443e
000001c0: 33a8 b33e b86f 7a3d 52e1 953f 50cc 893a
000001d0: 97d9 ad40 a7de b43d b1f1 7bbe 3360 283e
000001e0: e235 babd 5c1d 153d aa9a debb 333b f93d
000001f0: 5f14 edbe bbba 6a3e 0009 de3d 6cca 81be
00000200: 1c0b 5bbf 9524 3fc0 917b 55bd c386 babf
00000210: 7609 523e adfd b0bf edd0 003f f589 bcbf
00000220: 444d 79be 9290 043f 0601 91be cf80 1cbe
00000230: c4d1 c7be 5983 0ebf dd1c a8be e0fd 24bf
00000240: 28e7 8dbb 4d9f 2a3f de7e df3d 1a60 e2be
00000250: a22f b6be 4803 08bf db68 10bf 2bca 963e
00000260: 4f4e 163f 5056 563f 57ef e63e 8c41 6fbe
00000270: 6989 3abe d5f9 cdbd 7219 a7bf 3175 963f
00000280: ba86 903f 2625 093f b1e2 823f 3dd4 233c
00000290: 4aee 013f 0116 b53e bbff a3be 9f8d 4a41
000002a0: f08b ea3d b837 7e3d e242 b53f 1709 ea3f
000002b0: d615 5f3f 9dc5 633e 46c7 773f 0dfe 233e
000002c0: 96d2 d23f b623 393e 37f2 c73d 9821 3bbe
000002d0: edbd c2bd 8e83 22ba 9f94 c1bd a272 a43d
000002e0: 849a 55bd 3d0f 303b b54e d03e 7448 84be
000002f0: b397 14be 0593 1abd 81c5 44be fa6f 17be
00000300: 167b c63d 8a9f 8cbd 2098 2e3f 7768 42be
00000310: 736a d9be 5d45 82bd 48c9 25bf dbdc 45be
00000320: f628 8c3e 0b47 5b3e d61a 4a3f c007 9bbd
00000330: 2c15 0bbf 1595 89bd 37b9 9ebf 65fe c4be
00000340: 30b3 afc0 e76a 43bd 8d48 79be 6abe 803e
00000350: 6d4f a4be 5f40 653f e5dc a4bd d34d 633e
00000360: cffb 82be a599 b13e ef9b 8cbe 5dea bdc0
00000370: 68c3 4a3d d91b 58be 001a 813d cbcd 10be
00000380: c08d 1a3e 9801 5f3d 4c37 1b3e 200e 053d
00000390: 98b3 033e 7037 a8be 500a 7dbe 1e82 36be
000003a0: 3fe2 a7bd c86b 39bb 5e50 ea3c e342 923d
000003b0: 6a39 a4bd 7767 f8be fbed 41be 8d91 72be
000003c0: e553 19bc 617d b1b9 1a40 a83d 5242 ec3d
000003d0: b0f9 36be a09e 1dc0 7a95 6fbe a9d3 c6bd
000003e0: 9e62 8cbd 537f d5bd 4f63 debc 74de bf3b
000003f0: a4ee 723e c0cd 9a3b 852b 2cbf 94f9 9dbe
-0.21467158 -0.2707731 -0.16267762 -5.2635126 0.094552115 -1.016878 -0.028632307 -0.22397882
-0.009577881 -0.2193397 0.46513328 -0.112398475 0.047314204 0.004060682 -0.075985186 0.27313626
-0.11490947 0.06742983 0.49809515 -0.029103506 -0.01742222 0.03485935 -0.13600223 0.22217236
-0.18802275 0.19886464 0.28598624 0.07961443 0.081630826 0.111561224 -0.0756948 0.26530674
-0.046115674 0.24064179 -0.32421106 0.16524668 0.01673001 -7.3854036 0.07408296 0.2577368
0.16792078 0.34411532 -0.28547415 0.05878246 0.54602104 2.4624782 0.21841308 1.0631965
0.13490368 0.60294205 0.06831276 0.50800353 0.16341467 0.48098236 -0.026012849 0.361785
-0.112828135 0.36829382 -0.18269692 -7.8849363 0.19983217 0.38430506 -0.083862774 0.3208316
-0.13218585 0.23383097 -0.16121322 0.02286816 -0.045696475 0.35793218 -0.13734837 0.25520837
-0.02694064 -0.0014374504 0.0024231847 -0.17610276 -0.12417304 0.21106657 -0.13732594 0.011916116
0.064433545 0.025069607 0.16826686 -0.2042623 -0.08743681 0.16511607 1.0033187 0.2924821
0.2775558 0.01958772 0.38505673 -0.0735802 0.3801417 -0.016103687 0.1338404 0.43057904
0.2527517 0.16483277 0.0509747 0.1681721 -0.08854898 0.38235235 0.015701791 0.32591552
0.35143542 0.09556397 0.9629493 -0.0065554003 1.1181673 -0.03194446 -0.41842496 0.1922099
0.35089263 0.0611417 1.1709387 0.001051316 5.4328113 0.0883153 -0.24603917 0.16442947
-0.090923086 0.036404952 -0.0067933397 0.121694945 -0.46304604 0.22922795 0.1084156 -0.25349748
-0.85563827 -2.9866078 -0.052119795 -1.4572376 0.20511422 -1.3827416 0.50318795 -1.4729601
-0.24345881 0.51783097 -0.28321093 -0.15283512 -0.39027226 -0.5566917 -0.3283452 -0.6444988
-0.0043305345 0.66649324 0.1091287 -0.44213945 -0.35583216 -0.53130007 -0.56409997 0.29451117
0.5871324 0.8372545 0.45104477 -0.23364848 -0.1821648 -0.10057417 -1.305464 1.1754514
1.1291115 0.5357231 1.0225431 0.009999332 0.50754225 0.3536835 -0.32031044 12.659575
0.11452472 0.062064856 1.4161036 1.8284024 0.87142694 0.22243352 0.9678844 0.16014881
1.6470516 0.18080029 0.09762996 -0.18274534 -0.09508882 -0.0006199413 -0.09452175 0.08029677
-0.05214931 0.0026864551 0.4068505 -0.25836527 -0.14510994 -0.037737865 -0.19215967 -0.1478881
0.096914455 -0.06866367 0.68200874 -0.18985163 -0.42464027 -0.06360886 -0.64760256 -0.19322531
0.27375 0.2141382 0.789472 -0.075698376 -0.5432918 -0.06717888 -1.2400273 -0.38475338
-5.4906235 -0.047709372 -0.24344082 0.25145274 -0.32091847 0.8955135 -0.08049945 0.22197656
-0.2558274 0.34687534 -0.27462718 -5.934859 0.04950276 -0.21104373 0.06303787 -0.14141004
0.15093136 0.05444488 0.15157813 0.032484174 0.12861478 -0.32854795 -0.24710965 -0.17823073
-0.0819745 -0.0028293002 0.028602775 0.07141664 -0.08018763 -0.48516437 -0.18938439 -0.23688336
-0.009358381 -0.00033853485 0.082153514 0.11536087 -0.17868686 -2.4628067 -0.23396865 -0.0970834
-0.06854747 -0.10424676 -0.027146963 0.005855376 0.23723847 0.0047242343 -0.67253906 -0.30854475

sequential_3/dense_10/MatMul f4 [10, 20]
00000000: 7898 f7bf f69e 8b40 65ee 7c3f cd86 7440
00000010: 3afb fb3d e175 3b3e f085 1ebd 9984 813f
00000020: 53c5 623e 902f 2140 224c d0be 6be5 ea3e
00000030: 093c 6e3d 68f6 b83e aa3d 823f 2a3f 493e
00000040: 93de 6e3f 9bd6 71bd 35a2 373e 4bcf 423e
00000050: 385e 41be 8bba 78c0 613d e1bf 49c0 9ebf
00000060: 4e53 23bd 5085 e53d 9330 95bf ff1b 9dbf
00000070: 8e48 9fc1 0c6b dcc0 f89f 40be 614b a1bc
00000080: 6bf2 1fc0 a10e a2c0 7941 0ac0 0e40 8c3d
00000090: 52c3 acbf 3b89 d6bf 2099 c2c0 7e94 9bc0
000000a0: 52f0 f2bd ad49 1040 ad29 1d3b 40df 473f
000000b0: a57b 26be 13b5 ccbd cfeb 013d 2bea 213e
000000c0: 37f8 4ebd 5032 dd3f 580d 923d c027 4fbe
000000d0: 11ff debd de06 953c 7598 2340 b679 f139
000000e0: 5897 163e 0535 f6bc 77d8 c5bd 0b4a dc3c
000000f0: 0e65 79bf 3f34 bf3e dc90 dbbb 4e76 a6bd
00000100: 7f7f e3be 0170 cabf b624 9dbc 61f3 873e
00000110: 1623 a5bd bf6e 2a3e 8719 0a3e 0577 17bf
00000120: e079 06bf 4357 9bbb f27b dbbf 7e1f 66bf
00000130: 3566 643f aae1 26be 71df 89be ecc7 bc3e
00000140: 7e28 e03f e1ee 893c 51f3 e7be cd63 ca3e
00000150: 8749 9e3e dd65 263f 2049 8d3d e191 b3bc
00000160: c518 b4bd 8124 063d 97c9 c8bf 521d fa3d
00000170: e173 5d3e 6595 853e 11ce e93f 55be 2f3f
00000180: 7bda aebd 876a aabd 3e9e 78be 15db 283d
00000190: e41b 87be 3d74 97bd f0d9 27be ab26 72bc
000001a0: 3c70 8d3f a39a 6b3e fda2 b73f 2979 b9bd
000001b0: 1ec4 1fbe a94b a1bc 120c 893f dc3c 853c
000001c0: a316 15be 6382 5a3e 5c8d 813f b39b 923e
000001d0: 6ec7 f0bd da22 df3d 042c 2abf 5226 3f3f
000001e0: e9a8 c0bd 53cc 3e40 ce46 0d3f b8f5 2e40
000001f0: 021d aa3c 67c0 933f 22fb b5bd 1cf9 3a3f
00000200: a1ac a2be 2a6c d73f 3e80 83bd 5f45 ca3e
00000210: 75d8 54be 5a39 483e dd94 0140 4d19 833f
00000220: 6fea 293e 3462 973e bf48 a7be b8e2 e63e
00000230: ed61 adbe 5c4d 7fbd 2b86 35bc 0ed8 2fbe
00000240: 499c 93bf a194 7d3e a0cc f0bf b30f 063c
00000250: f69b 2cbc 4c09 be3d 9ee6 8d3f 2cc7 c9bd
00000260: 91e7 c63d e1f4 953e cacf b43f 0153 553e
00000270: 0149 da3c 00d1 c23d babb 00be a692 493f
00000280: 9be2 383c b33f 013f 2160 21c2 29d0 36bd
00000290: b61c aabe 2f09 eebb d043 123e fa63 b0bf
000002a0: bf00 523f 8576 643f 1d2a 693d cccd 53bf
000002b0: 2e42 a03d cd4a 5f3f 9ead 873e 6e9e d5bd
000002c0: 2e26 c63f 6019 2fbe 2e07 223e 7b76 04bf
000002d0: 8096 32be 9dcf c03e 140b 3f3d 549e d23f
000002e0: 0b57 39bd 096d 1c3d 1f41 15bd 7d0b f8bd
000002f0: 48e6 0a3d a660 9d3e cd09 e1bf 3cb3 9939
00000300: 1b19 0f3e 2312 963e fc6a 0d3f 95a6 af3d
00000310: b00c 253f f36d a9bd 64eb b1bd 057d b0be
-1.9343405 4.3631544 0.9880126 3.8207276 0.12303777 0.18306686 -0.03870195 1.011859
0.22145586 2.518528 -0.40683085 0.45878157 0.058162723 0.36125493 1.0175068 0.19653001
0.9330837 -0.059042554 0.17932971 0.19024388 -0.18883598 -3.8863857 -1.7596856 -1.2402431
-0.039874367 0.11207068 -1.1655449 -1.2274169 -19.910427 -6.8880672 -0.18811023 -0.019689264
-2.499171 -5.0642858 -2.1602461 0.06848155 -1.3497107 -1.676063 -6.081192 -4.8618765
-0.11862244 2.2544968 0.002398114 0.7807503 -0.16258104 -0.09995475 0.031719025 0.15811984
-0.050529685 1.7280979 0.07131451 -0.20230007 -0.10888494 0.018191751 2.5561802 0.00046057784
0.1470617 -0.030054579 -0.09660428 0.026890775 -0.9741982 0.37344548 -0.006700618 -0.081280336
-0.4443321 -1.5815431 -0.019182544 0.2655287 -0.08063333 0.16643809 0.134863 -0.59165984
-0.52529716 -0.004740627 -1.71472 -0.89891803 0.89218456 -0.16297022 -0.26928285 0.36871278
1.7512357 0.01683754 -0.45302823 0.39529267 0.30915472 0.6499918 0.06898713 -0.021920146
-0.08793787 0.032749657 -1.568652 0.12212624 0.21626236 0.2609054 1.8266011 0.686498
-0.085377656 -0.083211 -0.24279115 0.041224558 -0.26388466 -0.073952176 -0.1639173 -0.014779727
1.1049876 0.23008208 1.4346615 -0.090563126 -0.15602157 -0.019689398 1.0706809 0.016264372
-0.14559416 0.21338801 1.0121264 0.28634414 -0.11756788 0.10895319 -0.6647341 0.7466785
-0.09407217 2.981221 0.55186164 2.7337475 0.020765785 1.1543092 -0.088857904 0.7303636
-0.3177233 1.6829884 -0.06420945 0.3950605 -0.20785697 0.19553128 2.024711 1.0242096
0.16593336 0.2956711 -0.32672688 0.45094848 -0.33863774 -0.062329635 -0.011079351 -0.17172262
-1.153207 0.24763729 -1.8812447 0.008182454 -0.010535231 0.09279117 1.1086004 -0.09852442
0.097121365 0.2928839 1.4125912 0.20832445 0.02664614 0.0951252 -0.12571612 0.7873939
0.011284496 0.5048782 -40.343876 -0.04463211 -0.3322503 -0.0072642784 0.14283681 -1.378051
0.8203239 0.89243346 0.056924928 -0.82735896 0.07825123 0.8722351 0.26499647 -0.10430609
1.5480402 -0.17099524 0.15823051 -0.51743287 -0.17440224 0.37658396 0.046641424 1.6454568
-0.045249026 0.03818992 -0.036439057 -0.12111566 0.03391102 0.307378 -1.7581116 0.00029315974
0.1397442 0.29310712 0.5524137 0.08576695 0.64472485 -0.08272924 -0.08687475 -0.34470382

sequential_3/dense_11/MatMul f4 [26, 10]
00000000: 1cad 9d3f 4a64 27bf 921c 24bf 5f1a 0bbd
00000010: 29cd 163f e89b b83e 955e 97bf d6d6 c93e
00000020: 3764 1abe 9274 1ebe 6ca1 babc 771a 5bbf
00000030: 28e3 94bf 6411 9fbe 09a8 0b3e bb8c b6be
00000040: ca14 3d3f a493 9ebe 36eb 383f b266 cebe
00000050: f8d8 5dbf 6b6e 52bf f077 343b 5ddc 793f
00000060: 2c1c 49bf 8a23 43bf 819f 9f3f 456e 2bbf
00000070: 5864 c63d 54dc 593e d180 a0bf 7dcb 38bf
00000080: 8a51 1e40 54ef 2a3f 3a85 99be 2833 ac3e
00000090: daf9 48c0 af25 023f b6b9 25be 862d f93f
000000a0: 22de 9cbe 9b4a 34bf 1a14 dbbf 672f 40bf
000000b0: 15ce 583e 3251 393f 25ec f73d 9106 333f
000000c0: a98a 093e 41e4 a03f d2ec c63e 40f8 e73e
000000d0: f205 83bf 910d eabe a791 163f 5c52 a0be
000000e0: 8b62 c53e 1af0 88be 6fd6 ee3d f155 7abf
000000f0: 10d0 b3bf 1720 26c0 39fb 89bf 21b7 17c0
00000100: bf67 9fbf aa0b c1bf b301 6fc0 55a0 74c0
00000110: e07d abbf 5efe 94be b11c d0bf a58c 43c0
00000120: 6c82 ddbf eae4 1bc0 7481 a5bf abfa c9bf
00000130: 0344 3ec0 1527 59c0 39fb 0ac0 4875 e5be
00000140: d688 d3bf 4110 33c0 d86e 15bf 2f32 33c0
00000150: b36a 8cbf fbdf c4bf 6491 53c0 b0c6 48c0
00000160: 3d59 02c0 5131 c9be 087c c8bf 3707 29c0
00000170: ad08 cbbf 9f09 21c0 6709 a3bf fc06 a6bf
00000180: 4c09 4cc0 9a17 44c0 259c 11c0 0532 82bf
00000190: 0965 9bbf a2f3 19c0 b713 b6bf edc0 16c0
000001a0: 6e6a 9bbf 8ed2 97bf 3fee 67c0 3901 79c0
000001b0: a37e cfbf b92a 09bf 0efa c4bf 7cbe 57c0
000001c0: 97de 83bf 9d6a 08c0 1e4f 98bf 60b5 d6bf
000001d0: 0a75 4fc0 d03c 81c0 bf5e e7bf 0f71 1abf
000001e0: db8b 8cbf 1ba8 1cc0 1d14 0dbf 59c7 3cc0
000001f0: 3a9f 9ebf 2cd7 86bf 947a 5ac0 88bd 60c0
00000200: 7fac f2bf 73fe e8be 256f 71bf f16d 32c0
00000210: 714e b8bf db30 35c0 d426 98bf e24c a8bf
00000220: 28ff 54c0 947e 5ac0 fdbf 01c0 d7d9 82bf
00000230: 0004 53bf de53 1ac0 704b 79bf 3bcb 1bc0
00000240: 9b31 b5bf 24bc 80bf 3739 63c0 8aec 56c0
00000250: 397e 18c0 5840 80bf 89f0 92bf 2524 2cc0
00000260: fe5f 97bf 56b3 1fc0 f252 aebf 5fdc b8bf
00000270: 862d 65c0 95c7 54c0 bfdd e0bf bc87 b3be
00000280: b399 85bf 9fbd 2ac0 5443 c0bf 8a35 34c0
00000290: fcb7 9cbf c540 a1bf 80ee 56c0 a64c 6ec0
000002a0: 9823 e5bf 1f8e 85bf f392 75bf c2c2 24c0
000002b0: ebce 87bf 7285 36c0 514a 97bf 9a59 9bbf
000002c0: c8e1 54c0 d0b2 4dc0 9caa 0ec0 0d8a 4cbf
000002d0: 165c b8bf 3e58 38c0 9666 b5bf 22e4 0cc0
000002e0: 0797 a5bf a459 96bf 1a6c 50c0 f378 72c0
000002f0: c640 ccbf 574f 7cbf cf35 a0bf 422e 2ac0
00000300: 6fec 62bf de6e 31c0 cb08 9abf e61a 9abf
00000310: 5521 5cc0 3e6c 49c0 0b01 d5bf 6e13 6cbf
00000320: 90b8 a7bf f518 25c0 64c8 74bf 2c4f 30c0
00000330: 30cc 9ebf 0641 9dbf dfc8 61c0 82f4 44c0
00000340: b720 d8bf 5537 20bf 2c45 91bf 1fbc 2cc0
00000350: 93e5 a0bf 5c76 24c0 52ed 95bf fa98 c6bf
00000360: 4864 65c0 1f3f 86c0 6469 b9bf b89c fcbe
00000370: 31a6 aabf 19b0 23c0 eccd b0bf c00a 18c0
00000380: 7677 8dbf 3fa5 bcbf cf45 56c0 6014 85c0
00000390: 0d47 d6bf 77c5 d9be 69d0 9dbf ea10 23c0
000003a0: b11d 92bf f79c 1cc0 c5e5 a2bf 8e09 adbf
000003b0: 1182 66c0 2b17 5bc0 7d45 fbbf e717 7cbf
000003c0: 3f26 c0bf 2c8e 23c0 8c47 99bf e8ff 38c0
000003d0: ad51 9abf d129 a9bf de79 62c0 b7ad 32c0
000003e0: bd9e ddbf 7b52 fdbe 6cae 96bf 6376 25c0
000003f0: d8db 99bf d0b2 31c0 0a40 92bf 2b31 a0bf
1.2318454 -0.65387404 -0.64106095 -0.033960696 0.589068 0.36056447 -1.1825739 0.3942172
-0.15077291 -0.15474156 -0.02278205 -0.8558726 -1.1631823 -0.31067955 0.13638319 -0.35654244
0.73859847 -0.30972016 0.72233903 -0.40312725 -0.86659193 -0.82199734 0.0027537309 0.9760187
-0.7855861 -0.76226103 1.2470552 -0.6696513 0.09687108 0.21275455 -1.2539312 -0.721855
2.4737267 0.66771436 -0.29984456 0.3363278 -3.1402497 0.5083875 -0.16184124 1.9467018
-0.30638224 -0.7042634 -1.711551 -0.7507233 0.21172364 0.7238952 0.12105588 0.69931895
0.13431801 1.2569658 0.38852555 0.45306587 -1.0236189 -0.45713475 0.58816 -0.31312835
0.38551745 -0.26745683 0.11661994 -0.97787386 -1.4047871 -2.5957086 -1.0779792 -2.3705523
-1.2453536 -1.5081685 -3.7344787 -3.822286 -1.3397789 -0.29100317 -1.6258756 -3.0554593
-1.7305427 -2.4358468 -1.2930131 -1.5779623 -2.972901 -3.3930104 -2.1715834 -0.4481604
-1.6526134 -2.797867 -0.5837226 -2.799938 -1.0970062 -1.5380853 -3.305749 -3.137127
-2.0366967 -0.39295438 -1.5662851 -2.6410654 -1.5862023 -2.5162122 -1.2737244 -1.2970881
-3.1880674 -3.0639405 -2.2751553 -1.0171515 -1.2140208 -2.4054952 -1.4224766 -2.3555253
-1.2141855 -1.1861131 -3.6239164 -3.8906996 -1.6210521 -0.53580815 -1.5388811 -3.3710012
-1.0302304 -2.1315072 -1.1899145 -1.6774101 -3.2415185 -4.0386734 -1.8075789 -0.60328764
-1.098018 -2.4477603 -0.55108815 -2.9496672 -1.2392342 -1.0534415 -3.4137316 -3.511568
-1.8958892 -0.4550663 -0.9431022 -2.7879603 -1.4398938 -2.831107 -1.1886849 -1.3148463
-3.3280735 -3.4139757 -2.027343 -1.022273 -0.8242798 -2.4113688 -0.97380733 -2.4342792
-1.4155763 -1.0057416 -3.550367 -3.3581872 -2.382704 -1.0019636 -1.1479656 -2.689706
-1.182617 -2.4953208 -1.3619063 -1.4442252 -3.5809035 -3.3246815 -1.7567672 -0.35064495
-1.043753 -2.6678236 -1.5020547 -2.8157678 -1.2243648 -1.2597891 -3.358307 -3.7234282
-1.7901487 -1.0433997 -0.9592735 -2.574387 -1.0610021 -2.8518949 -1.1819555 -1.2136719
-3.3262806 -3.2140388 -2.2291632 -0.7989815 -1.4403102 -2.8803859 -1.4171932 -2.2014241
-1.2936715 -1.1746106 -3.256598 -3.7886322 -1.5957267 -0.98558563 -1.2516421 -2.6590734
-0.8864202 -2.7723918 -1.2033933 -1.2039459 -3.4395344 -3.1472316 -1.6640943 -0.9221715
-1.3103199 -2.5796483 -0.9561827 -2.7548323 -1.2406063 -1.2285469 -3.5278852 -3.0774236
-1.6884984 -0.6258443 -1.1349235 -2.698982 -1.257006 -2.569724 -1.171305 -1.5515435
-3.5842457 -4.195205 -1.4485288 -0.49338317 -1.3331968 -2.5576231 -1.3812842 -2.3756561
-1.1052082 -1.4737929 -3.3480108 -4.158737 -1.6740433 -0.42533466 -1.2329227 -2.5479074
-1.1415311 -2.4470804 -1.272637 -1.3518541 -3.6016886 -3.423289 -1.9630581 -0.9847397
-1.5011672 -2.5555525 -1.1974959 -2.8906193 -1.2056175 -1.3215886 -3.5386882 -2.7918527
-1.7314068 -0.4947699 -1.1771979 -2.5853508 -1.2020216 -2.7765388 -1.1425793 -1.2515005
