Src_code/model/keypoint_classifier/model_versions/full_data_inacc/05/keypoint_classifier.tflite (tflite, 9416 bytes, 8 tensors)

dense_9/bias f4 [45]
00000000: ab9d c2bf c684 bdbf 4f8d 45bf 75c7 bfbf
00000010: 7138 d0bf bd22 a7bf a835 b9bf 40a5 9fbf
00000020: 0abe afbf b966 2fc0 5014 7f3d b24b b2bf
00000030: dcb8 b4bf 1a94 0cc0 21a9 aabe a5d2 c7bf
00000040: 8438 1abf 6f46 13bf 9df9 2bc0 5b7b b4bf
00000050: 6604 fdbf 14ab 60bf ccbc 8dbf ea0a e3bf
00000060: 988f a4bf 1463 d5bf c5c1 babe 1b30 a7bf
00000070: 37fb 483f 3984 443d f4d5 87bf 088e f8bf
00000080: 112f f0bf 2775 b3bf 6678 77bf 9148 1bc0
00000090: a559 a7bf 0411 72bf 055e 97bf 3ad5 5bbf
000000a0: 8f7c 22c0 5388 a8bf 1189 b3bf 1b98 12c0
000000b0: 5376 613f
-1.5204366 -1.4806144 -0.77168745 -1.4982744 -1.6267225 -1.3057476 -1.44695 -1.2472305
-1.372987 -2.7406447 0.06227523 -1.392935 -1.4118915 -2.1965394 -0.3333216 -1.5611159
-0.60242486 -0.5752935 -2.6871102 -1.4100145 -1.9766967 -0.87761045 -1.1073241 -1.7737706
-1.2856321 -1.6670861 -0.3647596 -1.3061556 0.78508323 0.04797766 -1.0612168 -1.9418344
-1.8764364 -1.4020127 -0.9666809 -2.426304 -1.3074232 -0.94557214 -1.1825567 -0.8587223
-2.5388525 -1.3166603 -1.4026204 -2.2905338 0.88071173

dense_12/bias f4 [26]
00000000: 6df4 a0c0 97a7 e0bf 0560 82c0 6360 57bf
00000010: bcaf 123f c04b a43f b4e8 98bf b4ab f73f
00000020: 77ed 2a40 ff59 1a40 572c 65bf 939b 83c0
00000030: 29ef 723f c5a5 cebe 7694 15bf d5a7 e73f
00000040: 1504 7040 4b70 b1be 6868 363f 4494 f43f
00000050: 6621 ebbf 5e53 0abf 06c2 383d cbe6 053c
00000060: ee11 9bbf 34d6 9940
-5.029837 -1.7551144 -4.074221 -0.8413145 0.572994 1.2835617 -1.1946015 1.9349275
2.6707437 2.411743 -0.8952078 -4.112741 0.9489618 -0.40360847 -0.5842966 1.8098093
3.7502491 -0.34655985 0.7125306 1.9107747 -1.8369567 -0.5403346 0.04510691 0.008172701
-1.2114847 4.807398

dense_11/bias f4 [15]
00000000: a4e1 ae40 d84d 8a40 90eb 833f fd1a 9cbf
00000010: c506 0540 f2e3 c340 5e3a fc3e ff9f 8640
00000020: 07da dd3f d5dc ab40 dd30 ab40 9df7 5540
00000030: 999f 9640 26d8 9f40 21f1 3d40
5.465044 4.3220024 1.0306263 -1.2195736 2.0785382 6.1215754 0.4926328 4.207031
1.7332162 5.370707 5.3497148 3.343238 4.706982 4.9951353 2.9678423

dense_10/bias f4 [30]
00000000: cf66 86bc 9b13 91be 625a c9be dd41 07be
00000010: b596 b6bc 51a0 f2bb 4ab1 b9bc 5424 85bd
00000020: 8471 a2be 4442 7fbe c65f d5be 680d 143c
00000030: 8103 88be 59e2 79b9 bf18 203c 82a0 92bd
00000040: d3f3 b1bc 31e1 d93c f061 e23d 5a1e e13d
00000050: e2b4 45be f4e0 c1ba a5d0 afbe 191d 1ebc
00000060: 5d0d 8abe e54f 45be 791b 8dbd 7e28 2dbe
00000070: b84e adbe 3a03 323c
-0.016406445 -0.2833527 -0.3932677 -0.13208719 -0.02228866 -0.007404365 -0.022667546 -0.0650107
-0.3172723 -0.24927622 -0.41674632 0.009036399 -0.26565173 -0.00023830812 0.009771525 -0.07159521
-0.02172271 0.026596637 0.11053836 0.10992117 -0.19307283 -0.0014791773 -0.3433887 -0.009650492
-0.2696332 -0.19268759 -0.068900056 -0.16909978 -0.3384912 0.010865027

sequential_3/dense_9/MatMul i1 [45, 42] scale=0.03535966 zero_point=0
00000000: fffd 09ea 01f7 0300 0103 00ff f5ff f9ff
00000010: e1ff f801 f501 f400 f501 f101 f001 f503
00000020: fb02 e905 f002 f603 fd01 ff00 fbfe 7201
00000030: fa01 fd02 ffff 0000 0000 02ff 0200 0100
00000040: ff01 fd00 0200 ff00 faff f2fd 0204 ff02
00000050: fd02 fc03 fe03 f717 f80a f704 f304 1404
00000060: 0b02 0503 fe04 2202 0d01 0200 fa00 0f01
00000070: 1201 1500 0bfc 06fc 1102 19fd 2706 fa05
00000080: ff08 ff01 0000 0100 00ff 0000 0000 0000
00000090: 0000 0000 0100 0000 0100 00ff 0101 0004
000000a0: ff03 feab 0002 ff04 0306 04e9 03fd 09ff
000000b0: 9500 09fc 08fe 01fc 01fc 09fe 04ff fafe
000000c0: fbfe 0101 ff02 0101 04ff 0105 ff01 0101
000000d0: 0802 01fb 0006 0001 0000 ff00 0100 0000
000000e0: 0000 ff00 0000 0000 0000 00ff ff00 0000
000000f0: 0101 0103 ffa3 ff02 0001 0003 0506 0a05
-0.03535966 -0.106078975 0.31823692 -0.7779125 0.03535966 -0.31823692 0.106078975 0.0
0.03535966 0.106078975 0.0 -0.03535966 -0.38895625 -0.03535966 -0.24751762 -0.03535966
-1.0961494 -0.03535966 -0.28287727 0.03535966 -0.38895625 0.03535966 -0.4243159 0.0
-0.38895625 0.03535966 -0.53039485 0.03535966 -0.56575453 0.03535966 -0.38895625 0.106078975
-0.17679828 0.07071932 -0.8132721 0.17679828 -0.56575453 0.07071932 -0.35359657 0.106078975
-0.106078975 0.03535966 -0.03535966 0.0 -0.17679828 -0.07071932 4.031001 0.03535966
-0.21215795 0.03535966 -0.106078975 0.07071932 -0.03535966 -0.03535966 0.0 0.0
0.0 0.0 0.07071932 -0.03535966 0.07071932 0.0 0.03535966 0.0
-0.03535966 0.03535966 -0.106078975 0.0 0.07071932 0.0 -0.03535966 0.0
-0.21215795 -0.03535966 -0.49503523 -0.106078975 0.07071932 0.14143863 -0.03535966 0.07071932
-0.106078975 0.07071932 -0.14143863 0.106078975 -0.07071932 0.106078975 -0.31823692 0.8132721
-0.28287727 0.35359657 -0.31823692 0.14143863 -0.45967555 0.14143863 0.70719314 0.14143863
0.38895625 0.07071932 0.17679828 0.106078975 -0.07071932 0.14143863 1.2022284 0.07071932
0.45967555 0.03535966 0.07071932 0.0 -0.21215795 0.0 0.53039485 0.03535966
0.63647383 0.03535966 0.7425528 0.0 0.38895625 -0.14143863 0.21215795 -0.14143863
0.6011142 0.07071932 0.8839915 -0.106078975 1.3790267 0.21215795 -0.21215795 0.17679828
-0.03535966 0.28287727 -0.03535966 0.03535966 0.0 0.0 0.03535966 0.0
0.0 -0.03535966 0.0 0.0 0.0 0.0 0.0 0.0
0.0 0.0 0.0 0.0 0.03535966 0.0 0.0 0.0
0.03535966 0.0 0.0 -0.03535966 0.03535966 0.03535966 0.0 0.14143863
-0.03535966 0.106078975 -0.07071932 -3.005571 0.0 0.07071932 -0.03535966 0.14143863
0.106078975 0.21215795 0.14143863 -0.8132721 0.106078975 -0.106078975 0.31823692 -0.03535966
-3.7834835 0.0 0.31823692 -0.14143863 0.28287727 -0.07071932 0.03535966 -0.14143863
0.03535966 -0.14143863 0.31823692 -0.07071932 0.14143863 -0.03535966 -0.21215795 -0.07071932
-0.17679828 -0.07071932 0.03535966 0.03535966 -0.03535966 0.07071932 0.03535966 0.03535966
0.14143863 -0.03535966 0.03535966 0.17679828 -0.03535966 0.03535966 0.03535966 0.03535966
0.28287727 0.07071932 0.03535966 -0.17679828 0.0 0.21215795 0.0 0.03535966
0.0 0.0 -0.03535966 0.0 0.03535966 0.0 0.0 0.0
0.0 0.0 -0.03535966 0.0 0.0 0.0 0.0 0.0
0.0 0.0 0.0 -0.03535966 -0.03535966 0.0 0.0 0.0
0.03535966 0.03535966 0.03535966 0.106078975 -0.03535966 -3.2884483 -0.03535966 0.07071932
0.0 0.03535966 0.0 0.106078975 0.17679828 0.21215795 0.35359657 0.17679828

sequential_3/dense_10/MatMul i1 [30, 45] scale=0.16632614 zero_point=0
00000000: 0000 0000 0000 0000 0000 ff00 0000 0006
00000010: 0000 0000 1200 0000 0000 0000 000c 1100
00000020: 0008 1000 0500 0000 0005 0a00 0000 ff01
00000030: 0200 0001 0008 00e3 fe00 1400 fd00 0000
00000040: 0002 0100 0000 0000 00e6 0100 0000 0000
00000050: 0001 0200 0000 00d9 11e0 0000 0000 0000
00000060: 0100 0a01 0300 001b 00e5 0000 0001 0500
00000070: 0000 0001 0000 0202 0000 0001 0001 0102
00000080: 0001 0002 ff1b f400 0000 0000 0000 0000
00000090: 0000 0000 0000 0600 0000 0023 0000 0000
000000a0: 0000 0000 1400 0000 0d00 0008 0000 0000
000000b0: 0906 0100 feff 0100 1500 0914 0000 07ff
000000c0: 01ff 02fd 0102 0009 0001 0100 0e13 0201
000000d0: 0600 00fd 0000 0000 0000 0101 0000 fe00
000000e0: 07ff 0000 fe00 fe00 0000 0ac8 0000 0100
000000f0: 0300 000c 00d7 0000 0300 0000 00c0 8100
0.0 0.0 0.0 0.0 0.0 0.0 0.0 0.0
0.0 0.0 -0.16632614 0.0 0.0 0.0 0.0 0.9979568
0.0 0.0 0.0 0.0 2.9938705 0.0 0.0 0.0
0.0 0.0 0.0 0.0 0.0 1.9959136 2.8275442 0.0
0.0 1.3306091 2.6612182 0.0 0.8316307 0.0 0.0 0.0
0.0 0.8316307 1.6632614 0.0 0.0 0.0 -0.16632614 0.16632614
0.33265227 0.0 0.0 0.16632614 0.0 1.3306091 0.0 -4.8234577
-0.33265227 0.0 3.3265228 0.0 -0.4989784 0.0 0.0 0.0
0.0 0.33265227 0.16632614 0.0 0.0 0.0 0.0 0.0
0.0 -4.3244796 0.16632614 0.0 0.0 0.0 0.0 0.0
0.0 0.16632614 0.33265227 0.0 0.0 0.0 0.0 -6.486719
2.8275442 -5.3224363 0.0 0.0 0.0 0.0 0.0 0.0
0.16632614 0.0 1.6632614 0.16632614 0.4989784 0.0 0.0 4.4908056
0.0 -4.4908056 0.0 0.0 0.0 0.16632614 0.8316307 0.0
0.0 0.0 0.0 0.16632614 0.0 0.0 0.33265227 0.33265227
0.0 0.0 0.0 0.16632614 0.0 0.16632614 0.16632614 0.33265227
0.0 0.16632614 0.0 0.33265227 -0.16632614 4.4908056 -1.9959136 0.0
0.0 0.0 0.0 0.0 0.0 0.0 0.0 0.0
0.0 0.0 0.0 0.0 0.0 0.0 0.9979568 0.0
0.0 0.0 0.0 5.821415 0.0 0.0 0.0 0.0
0.0 0.0 0.0 0.0 3.3265228 0.0 0.0 0.0
2.1622398 0.0 0.0 1.3306091 0.0 0.0 0.0 0.0
1.4969352 0.9979568 0.16632614 0.0 -0.33265227 -0.16632614 0.16632614 0.0
3.4928489 0.0 1.4969352 3.3265228 0.0 0.0 1.1642829 -0.16632614
0.16632614 -0.16632614 0.33265227 -0.4989784 0.16632614 0.33265227 0.0 1.4969352
0.0 0.16632614 0.16632614 0.0 2.3285658 3.1601965 0.33265227 0.16632614
0.9979568 0.0 0.0 -0.4989784 0.0 0.0 0.0 0.0
0.0 0.0 0.16632614 0.16632614 0.0 0.0 -0.33265227 0.0
1.1642829 -0.16632614 0.0 0.0 -0.33265227 0.0 -0.33265227 0.0
0.0 0.0 1.6632614 -9.314263 0.0 0.0 0.16632614 0.0
0.4989784 0.0 0.0 1.9959136 0.0 -6.8193717 0.0 0.0
0.4989784 0.0 0.0 0.0 0.0 -10.644873 -21.123419 0.0

sequential_3/dense_11/MatMul f4 [15, 30]
00000000: e6d9 3cc1 3793 0f3d 916f d63c 1dc0 30c1
00000010: 383b 95bc 928f 55bd 4e9f 2e3d 001b 89bb
00000020: 3f71 a0ba 9840 d13b 8da9 383d 75c3 b53c
00000030: bb35 60bc f781 0a3e 1da7 cd3c fdc6 aabb
00000040: 2a84 43bc e72e 48bb e5ed bd3b f637 b53f
00000050: 48f5 45bb 26ba f13c de26 75bb 9ae8 7f3c
00000060: 5525 423b 4a0b 32bd 9f64 07bf 9201 2abc
00000070: 5f51 63bc 377d 97ba e35d d3bb 1b1d 12bc
00000080: ed9f e73a e62b 80bc 6c5c 81bd 834a 0c3e
00000090: 98da af3e 0859 ed3c 5be8 5cbd 1f3d b03d
000000a0: 20de 54bc 8431 713d 5346 8ebe d990 163d
000000b0: 411d cc3c a808 89bd 5744 b6bc 4054 5dbe
000000c0: 4171 aebf 05de 04bf a9bc e6bd 37c3 a2bc
000000d0: f460 b23d f6b0 4f3c aaef a43d 38a4 2e3c
000000e0: 8ca1 6cbe 66e8 643d de26 2e3d 57d1 2e3e
000000f0: 1e34 35bb 0e3a eb3c 26a5 adbb 8b66 88bb
00000100: a717 cbbc 7120 9dbc dae5 d5bb 245f 08ba
00000110: f1d8 93bd 7d2a beba d9d7 ae3c be19 8a3f
00000120: 60d0 dabd d7b8 6c3f 710a 843f becc d9bd
00000130: ec04 3cba 5b6a 91c0 99df dbbd f92d cfbd
00000140: d076 6bb8 7be6 8bbc 6151 223c 1938 a93c
00000150: 4232 68bc 9fc9 403b 0f91 033f 5e9d b0bd
00000160: 9ef4 c33b 2612 803f 69bd 20bb ac2b 463d
00000170: 0376 233d 9706 603a 3c5d 07bd 88a3 873c
00000180: f000 603f c8fb 813d 658f 51bd 5fc0 733c
00000190: 80e8 053d 13f3 15bd a183 78bb 07ab b13e
000001a0: 1180 573b 397f 4bbd 5269 983c d303 3dbd
000001b0: 91ea 9c3d 19fc 73be dc75 a0bc 7543 ea3c
000001c0: e15f 23bb dc16 c23d 8be4 833b 50ad ef3c
000001d0: fbf0 213f 2d87 ab3e f18b 873c 952e b0bd
000001e0: c077 3e3d 5616 823e 00fe 4a3e 7a75 e33c
000001f0: 7c46 5c3b 8350 4d3e eab4 073e 95ef 35be
00000200: 9345 b23b 1541 f73d f47d 263e 510f d83e
00000210: 477e 2d3e 3a6d 993d 795c ab3e 2978 88ba
00000220: a052 84bc 1e2b 5a3b e30f 923c bd9e c13f
00000230: 3d0e b03c b579 3c3e e709 033e 8a05 02bd
00000240: 2f2d f13d 06bd babe 8dda b0bc acb5 11be
00000250: 9e67 24be 6f15 073f bd10 ab39 4b3d 3d3c
00000260: 27a0 673c 80b2 0bbc 3ed4 233b f1bd 263d
00000270: 055e 3bc1 0cf2 ee3c 7a3e a8bb b276 e23c
00000280: bd32 6e3c 2ade 8a3b 2e00 5dbe e76a e03c
00000290: 6bc7 a23c 3a99 10bc 3237 c73c 772d 5cba
000002a0: ec92 42bc 7e1d 703e 2c4a 1bb9 50d9 643c
000002b0: 9019 063d 49e1 8d3c be08 143d 0ae8 de3c
000002c0: 1ce9 f6bc 1707 173d bd01 6e3d 6990 99bd
000002d0: 5dc8 633f e9d7 1c3b 9011 c7ba 73bf 61bf
000002e0: f71e 87bc 7e35 28bb 7ba4 6e3b 919f 26bc
000002f0: e1aa ccbc df0a 84ba 712e 23ba 3595 2ebc
00000300: 4deb e7bc 5899 10bd ad34 eebc ce50 eabc
00000310: c91c 09bc 7730 98bd 8884 2cbd 82ea 803f
00000320: e588 96be df01 563b e62c 8bbb 199e 57bc
00000330: c0f7 9b3b a3c6 963f d59c 08be 0406 2dbd
00000340: dccd c7bc 0cac 5939 7e2d 70bc ec57 a93c
00000350: 40e7 61bb e792 3cbc 22c0 d4c0 2e94 843c
00000360: 9a1e 71bb 23cc 08c1 d420 69bf fac6 c73b
00000370: cd81 8c3c d313 61ba 63d0 8a3e 5d7a d63d
00000380: c26e 8a3b 9604 18bf 805c f4c0 f45c 34bc
00000390: a015 46bd d83d 853d b1cd 4abd ab6a c1bb
000003a0: d53c 293c 8856 ebc0 7468 3f3c 53b3 db3c
000003b0: 258d 403d 4448 9ec0 917a 1fbf 700a 7abd
000003c0: c02a d0bd 2575 fc3d d154 643d f397 213f
000003d0: 7a20 8c3b 7f14 85bb 3bd1 c0ba 2f12 963c
000003e0: c449 4ebd 98e8 21bc 2afb 2d3d 1086 333c
000003f0: 4095 153e 6b4a f83c 9b27 ed3c 790d 9abd
-11.803198 0.035052504 0.026176246 -11.046903 -0.018216714 -0.052138872 0.042632394 -0.004184127
-0.0012240781 0.006385874 0.04508357 0.022187928 -0.013684685 0.1352614 0.0251041 -0.0052117095
-0.011933366 -0.0030545534 0.0057961815 1.4157703 -0.0030206013 0.029507708 -0.00374072 0.015619421
0.0029624302 -0.043467797 -0.5288791 -0.010376351 -0.013874381 -0.0011557703 -0.006450401 -0.008918072
0.0017671563 -0.015645932 -0.06316456 0.13700299 0.3434646 0.028973117 -0.05393253 0.08605408
-0.012992412 0.058885112 -0.27788028 0.03675923 0.024916293 -0.06691104 -0.022249384 -0.2161417
-1.3628312 -0.51901275 -0.11266453 -0.019868476 0.087098986 0.012676468 0.08053525 0.01065927
-0.231085 0.055885695 0.042517535 0.17072044 -0.0027649472 0.028714206 -0.0052992282 -0.0041626147
-0.024791552 -0.019180508 -0.0065276446 -0.00052021653 -0.07219113 -0.0014508512 0.021343159 1.0789106
-0.106842756 0.92469543 1.0315686 -0.106347546 -0.0007172364 -4.544233 -0.10736007 -0.101161905
-5.613902e-05 -0.017077675 0.009907098 0.020656632 -0.014172139 0.002941705 0.51393217 -0.086237654
0.0059800884 1.0005538 -0.002452696 0.048381492 0.039907467 0.0008545904 -0.0330479 0.01655747
0.8750143 0.063468516 -0.051162142 0.014877408 0.032692432 -0.036608767 -0.0037920254 0.34700796
0.003288273 -0.049681876 0.018604908 -0.046146225 0.076619275 -0.23826636 -0.01958745 0.02859662
-0.0024928974 0.09477016 0.004025047 0.029257447 0.6325833 0.33501568 0.016546221 -0.08602635
0.04650092 0.25407666 0.19823456 0.027765978 0.0033611348 0.20050244 0.13252607 -0.17767175
0.005440423 0.1207296 0.16258985 0.42199185 0.16942702 0.074915364 0.3346899 -0.0010411787
-0.01615268 0.003328986 0.017829841 1.5126568 0.021491164 0.18405803 0.12796746 -0.031743564
0.11776196 -0.36472338 -0.021588588 -0.14229459 -0.16055152 0.5276708 0.00032628133 0.011550258
0.014137304 -0.008526444 0.0024998332 0.040708486 -11.710454 0.029168151 -0.005134401 0.027644489
0.014538464 0.00423791 -0.215821 0.027394725 0.01987048 -0.008825595 0.024318311 -0.0008399109
-0.011875849 0.2344875 -0.00014809583 0.013967827 0.032739222 0.017319338 0.03614115 0.027210254
-0.030140452 0.036871996 0.058107127 -0.07498247 0.88977605 0.0023932403 -0.0015187729 -0.88182753
-0.016494257 -0.002566665 0.0036413956 -0.0101698795 -0.024983825 -0.0010074041 -0.0006224877 -0.010655691
-0.028310442 -0.03530249 -0.029077852 -0.028602984 -0.008368679 -0.07431119 -0.04211858 1.0071566
-0.29401317 0.0032654924 -0.0042472957 -0.013160252 0.0047597587 1.1779369 -0.13341077 -0.042242065
-0.024390154 0.00020758825 -0.014659284 0.020671807 -0.003447011 -0.011509634 -6.6484537 0.016183939
-0.0036791922 -8.549838 -0.91065717 0.006096718 0.017151738 -0.0008586023 0.2711211 0.10472558
0.004224629 -0.59382 -7.6362915 -0.01100849 -0.048360467 0.065059364 -0.04951257 -0.0059026084
0.010329445 -7.354313 0.011682618 0.026818907 0.047009606 -4.9463215 -0.62296396 -0.06104511
-0.10164404 0.12327031 0.05574495 0.6312248 0.0042763324 -0.004061281 -0.0014710793 0.018319217
-0.050363317 -0.009882115 0.042475857 0.010957256 0.14607716 0.030308923 0.02894955 -0.07522101

sequential_3/dense_12/MatMul f4 [26, 15]
00000000: 94cc 8cbe c992 94be fa34 1e3e 65e5 bc3e
00000010: bf03 113f 87ab e23e cc1b e4be 6c2c 02bf
00000020: 7a64 45be 0c62 34bf f53d 2b3e 890a 8ebe
00000030: ccc7 fe3e 156a 3dbe 8e8d 533e 9b40 003e
00000040: d6e8 52bf cd2f 683e 027d aabf a49d 29be
00000050: 9d74 0ebf 68cd 8a3e b8ef 243f 7d72 c13d
00000060: 3e8a 0e3f 5ad8 38bf 1cab cd3e af14 56bf
00000070: d7e0 113f 8b14 c9be e938 46bd f402 06bf
00000080: 0400 5c3e 444d f53d ebea bdbd d686 e33e
00000090: 574d 473e cc47 c9be 7be2 0c3e 6d03 52bf
000000a0: 6838 6abf 3363 2a3e 1330 07bf 90a1 e33e
000000b0: e6e6 8a3e abde bebe 0824 c3bd df27 a33c
000000c0: a63c 4cbe 7eb8 c1be 2aed d8be 192d 32bd
000000d0: bb33 05bf 10eb 2abe c6fe df3e 87ba 47bf
000000e0: fbcd ee3e b378 6b3d 0ebb 8f3e 1afa 8a3e
000000f0: 540b 7ebe 30ba 5fbe 1b57 863e 23b3 33be
00000100: 7b6c c23d f695 80be 6305 a23d 9599 d73e
00000110: 2d48 093c 7778 b8be d575 91bf ad69 1c3e
00000120: ecbf 973e d9b5 bcbe 48dc 32be 4635 263e
00000130: fdd6 7a3e 7384 2f3e 7483 09bf 3631 2a3e
00000140: 4528 c0be ba6f 8f3e 3560 01bf 9c8b 5e3e
00000150: 0cf1 e5be 1d08 4ebf 2981 c63c 7090 37bf
00000160: 0677 53be 2342 82bb 85db 873e 14dd 343f
00000170: b24c 95bf 69b8 2e3e bdd2 57be 2cd1 063e
00000180: b669 4fbe 0b25 f3be 4cc6 63bf d476 0abf
00000190: a818 653f a3a0 44bf af41 4bbf 360f c8be
000001a0: ab6c 4bbe 4984 0cbe 5c36 fb3e 9a6e 68bf
000001b0: 708c cebd 254b 44be 7a49 bdbe 0919 5a3e
000001c0: 71fe febe b630 163e 845f e4be 04eb 0e3f
000001d0: a2ed 76bf 03ce 46bf 7a16 91bc f21e a03e
000001e0: bc6f fbbe 1ad9 143e 93f1 fc3d 4109 86be
000001f0: 1a8a 6539 cc84 62be 5b25 22bf 74ab 013f
00000200: 8f06 27bf 64cb 39be f186 afbe 0d93 dc3e
00000210: 9499 3fbf d4a8 9dbe 5872 6e3d 0499 e7be
00000220: f6f5 443f fa69 b3be 8e91 01bf bb88 05be
00000230: 0770 3cbe 3855 e3be 2829 eabe e618 f6be
00000240: e08c 0fbf ecf4 1ebf 229f e43e 90bc 3ebf
00000250: 1c2e 08be 8b83 573e 4f36 813d 5ade 8ebd
00000260: 92bb 93c0 c630 753e 255e 1abe 9a91 8abe
00000270: c37a 8a3e 8e98 29bf b218 893d aef8 183f
00000280: 44aa 873f 1c36 413e 1206 2c3f 2154 b7be
00000290: 9ff3 c8bf 7bc3 443e e8ea b3bc 7e41 bc3e
000002a0: 70f1 e9ba d6d1 0b3d 323f 9fbe 753d 63c0
000002b0: 7d75 9fbe 7a54 1fbf 8f1a 613e 0595 053f
000002c0: f654 cabf 35af 9e3e 0c8d 143f db5c 973e
000002d0: 862d 22be be66 f9be e30d e73d 8043 ae3e
000002e0: 39ec 2a3f 366c 2d3d a5b9 af3d 0529 51bd
000002f0: f9b5 933d 5d66 e4be 7261 61be 8679 11bf
00000300: d2a6 f0be e340 60be e155 833d 0c8c ecbd
00000310: 51c5 07bf 6ff4 ef3d 840d ac3e f5f6 303f
00000320: 97f8 623e d6cc 743d ea3d c5be 1db1 723d
00000330: d9a4 adbe 8f6b d6be b127 1dbf 4529 3dbf
00000340: 4fbd 4ebe eae7 d43d 69eb 81bc ddd1 bfbe
00000350: f245 083e 5ed8 173e b22d e63d 1eee c6bd
00000360: 2818 533e ec9e e9be 3e62 f33d 7848 19bd
00000370: 865f 41bf cf0f 923d 845b d8be ddc1 aebe
00000380: 0ac3 7e3e fb35 3c3e 0064 37be 3f3f f7bd
00000390: 676a 563d 6094 11be 3eca 823e a756 eabe
000003a0: 0415 dfbe 2651 a6bd 3e56 2abf 5b20 38bf
000003b0: c7a1 5cbf 9c8d d2be ca94 833e 19c6 133e
000003c0: 100b e3be 1f6b b7be f54e d53c 1737 463e
000003d0: b7f2 ebbd f141 623e 0b58 90be 28ab 04bf
000003e0: bcb5 0a3c 9437 1cbf d869 2bbf fddf 73bf
000003f0: fe1d d4be 169c 943e 66f1 c53d 1f2c b5bb
-0.2749983 -0.29018238 0.15449896 0.36893764 0.5664634 0.4427149 -0.44552457 -0.5084903
-0.1927661 -0.7046211 0.16722853 -0.27742413 0.49761808 -0.18497498 0.20659468 0.12524645
-0.8238653 0.22674485 -1.3319399 -0.16564041 -0.5564669 0.27109838 0.6442828 0.09445665
0.5567969 -0.72205126 0.4016961 -0.8362531 0.56983703 -0.39273486 -0.048394118 -0.52348256
0.21484381 0.11977628 -0.09273323 0.4443881 0.19463097 -0.3931259 0.1375827 -0.8203648
-0.9149232 0.16639404 -0.5280773 0.444592 0.27129287 -0.37279257 -0.09528357 0.019916473
-0.1994501 -0.3783607 -0.42368442 -0.04350004 -0.5203206 -0.16691232 0.43749064 -0.78018993
0.46641526 0.057488155 0.280724 0.27143937 -0.24809009 -0.21848369 0.2623833 -0.17548804
0.09493347 -0.2511441 0.07911184 0.4210936 0.008379024 -0.36029407 -1.1364084 0.15274687
0.29638612 -0.3685749 -0.17466843 0.1623126 0.24496074 0.17140369 -0.53716207 0.16620335
-0.37530723 0.28014928 -0.50537425 0.21732944 -0.44910467 -0.8048113 0.02423151 -0.7170477
-0.20650873 -0.0039751693 0.26534668 0.7064984 -1.166403 0.17062534 -0.21076484 0.1316573
-0.2025517 -0.474892 -0.8897445 -0.5408757 0.8949075 -0.7680761 -0.793971 -0.39074105
-0.19865672 -0.13722338 0.4906491 -0.90793765 -0.1008538 -0.1916929 -0.3697012 0.21298613
-0.49803498 0.14667019 -0.44604123 0.55827355 -0.9645635 -0.776581 -0.017710913 0.3127361
-0.49108684 0.14535943 0.12350764 -0.26178935 0.00021890589 -0.2212097 -0.6333825 0.5065224
-0.6524438 -0.18143994 -0.3428264 0.4308094 -0.74843717 -0.30792868 0.058214515 -0.4523393
0.76937807 -0.3504179 -0.50612724 -0.1304044 -0.1840211 -0.44400954 -0.45734525 -0.4806587
-0.56074333 -0.6209247 0.4465266 -0.74506474 -0.1329884 0.21046273 0.06309187 -0.06976004
-4.616647 0.23944387 -0.15074976 -0.2706421 0.27046785 -0.66248405 0.066941634 0.59754455
1.0598836 0.18868297 0.6719676 -0.35806373 -1.5699347 0.19215195 -0.021962598 0.36768717
-0.0017848443 0.034135662 -0.31102902 -3.550626 -0.31144324 -0.62238276 0.21982788 0.5218051
-1.5807178 0.30993047 0.5802772 0.2956303 -0.15837678 -0.487112 0.112819456 0.34035873
0.667667 0.042339526 0.08580331 -0.05106451 0.07212443 -0.44609347 -0.22009829 -0.56826055
-0.47002274 -0.21899752 0.064128645 -0.11550149 -0.53035456 0.11716544 0.33604062 0.69126827
0.22165142 0.05976566 -0.385238 0.05925094 -0.3391483 -0.41878936 -0.6138869 -0.738911
-0.20189403 0.103957966 -0.015859323 -0.374648 0.13307932 0.14828631 0.112391844 -0.09713386
0.20614684 -0.4562906 0.118839726 -0.037422627 -0.7553638 0.071319215 -0.4225732 -0.3413228
0.24879089 0.18379967 -0.1790924 -0.1207261 0.052347567 -0.14216757 0.25544924 -0.45769235
-0.4357072 -0.081209466 -0.66537845 -0.7192437 -0.8618435 -0.41123664 0.25699455 0.14431037
-0.44344378 -0.35823914 0.026038626 0.19356953 -0.115209036 0.22095467 -0.2819217 -0.51823664
0.00846618 -0.61022305 -0.6695838 -0.95263654 -0.41429132 0.29025334 0.09665184 -0.0055289413
