Src_code/model/keypoint_classifier/model_versions/full_data_inacc/04/keypoint_classifier.tflite (tflite, 7272 bytes, 6 tensors)

dense_8/bias f4 [26]
000000 ca 11 4c 40 9f 8e 09 c0 ba 0a 06 c1 9d 17 31 bf
       3.1885858 -2.14933 -8.377619 -0.69176656
000010 79 da 15 3f e1 e7 72 c0 b8 04 12 3f b5 25 c0 bf
       0.5853649 -3.7954028 0.5703845 -1.5011507
000020 a2 26 04 40 29 ce 98 40 58 b9 c3 bf 3e d0 98 40
       2.064858 4.775166 -1.5290937 4.77542
000030 4c b4 cb be 84 21 18 3f 8e 0a 79 c0 3c a6 90 c0
       -0.39785993 0.5942614 -3.8912692 -4.5202923
000040 89 33 2e 40 92 92 fb 3e 1f 4a 3b 40 43 6b 2e 3f
       2.7218955 0.49135262 2.926399 0.6813242
000050 3b 64 21 40 a8 89 e1 3f e6 8c a2 c0 40 df 9b c0
       2.5217426 1.7620134 -5.0796995 -4.871002
000060 ab 49 94 40 2b c6 f7 3f
       4.6339927 1.9357351

dense_7/bias f4 [10]
000000 48 00 8e bf 6c 88 30 40 3d 60 3b c0 87 f6 aa 40
       -1.1093836 2.7583265 -2.927749 5.3425937
000010 ad 20 bd 3f c6 15 70 40 d3 00 85 3f 02 fa 4d 3f
       1.4775597 3.751329 1.0390877 0.80459607
000020 d0 59 ae 40 bf de a9 3f
       5.4484634 1.3271102

dense_6/bias f4 [20]
000000 ea b9 1e 3f 30 5b 14 c0 de b5 a3 bf d9 72 fe bf
       0.6200243 -2.3180656 -1.2789876 -1.9878799
000010 29 39 56 bf 82 26 7d bf 49 c7 11 c0 5f c0 14 c0
       -0.8368097 -0.98886883 -2.2777884 -2.3242414
000020 ff 54 08 c0 bd 37 b8 bf 30 6e f4 bf bb 0d 4b bf
       -2.1301877 -1.439201 -1.9096127 -0.79317826
000030 3f 0d 7f bf 57 cb 90 bf e4 4f ea 3f 64 71 a0 bf
       -0.99629587 -1.1312054 1.8305631 -1.2534604
000040 4f a2 a1 bf 32 de a1 bf 4e 2e 7d 3f 66 4c 1e 3f
       -1.2627658 -1.2645934 0.9889878 0.61835325

sequential_2/dense_6/MatMul f4 [20, 42]
000000 fe ce 01 be fe 8a 90 be 3f c6 e6 be be 62 c1 3f
       -0.12676618 -0.28231043 -0.45073125 1.5108259
000010 2b 18 d6 be a8 56 37 3f 1c 84 14 bf 5c b1 21 3f
       -0.41815314 0.716166 -0.5801408 0.63161254
000020 9a 6a 13 bf 65 5b 12 3f 99 17 fb 3d ff 2f 0d 3e
       -0.57584536 0.57170707 0.1226036 0.1378784
000030 30 35 8a be 1c 23 1f 3e a8 cf 00 bf c3 c4 ac 3d
       -0.26993704 0.15540737 -0.5031686 0.08435967
000040 bc b8 1d bf d5 ed dc 3c 1d 63 ec 3d f9 cd f6 3d
       -0.6161001 0.026968876 0.11542342 0.12051005
000050 fa eb e5 be 4b 9b 3b 3e 6f d5 73 bf 9e c4 81 3e
       -0.44906598 0.18320958 -0.9524755 0.2534532
000060 95 a2 ab bf b7 e2 5d 3e d2 1c d8 bc ec e5 ae 3c
       -1.3408991 0.21668516 -0.02638093 0.02134987
000070 e8 5e e0 be 4b 18 4f 3e 3f f4 6f bf f9 26 22 3e
       -0.43822408 0.20224111 -0.93732065 0.1583518
000080 53 81 b0 bf 97 af 8a 3e af 67 98 be 31 c6 c1 3d
       -1.3789467 0.2708709 -0.29766604 0.0946163
000090 05 02 aa be 18 72 ed 3d f0 fa 0f bf d6 b9 10 3e
       -0.33204666 0.11594027 -0.56242275 0.14133391
0000a0 bd 43 4c bf 06 ae 3a 3e 6c 2c 30 be 50 73 ea 3c
       -0.7979086 0.18230447 -0.17204446 0.028619438
0000b0 43 94 92 39 0a e2 59 3e dd f6 8c bc 18 8c 3f 3c
       0.00027957754 0.21277633 -0.017207557 0.011691116
0000c0 a8 cc 8d 3b 2f b2 59 3c e2 46 b6 3c cb 90 a3 bb
       0.0043273754 0.013287111 0.022250596 -0.004991626
0000d0 d5 eb 99 3c 90 3a 15 3b 18 94 66 3a eb 10 73 3c
       0.018789211 0.0022770502 0.00087958714 0.0148355765
0000e0 83 35 d4 bb 62 86 79 bb f4 be d3 3c eb cc 22 bd
       -0.0064761057 -0.0038074483 0.02584789 -0.039746206
0000f0 00 db ac 3c d9 58 7e 3c 3e 87 dc 3b d3 2e 0c 3d
       0.021100521 0.015524113 0.0067299893 0.034224343
000100 9f 40 b3 bc 33 e3 4a 3d c9 01 36 bc ca b7 59 bb
       -0.0218814 0.04953308 -0.011108824 -0.003322112
000110 51 9e 07 bd ab ff 8c c0 22 ec 22 3c 7f d6 6a 3d
       -0.033109967 -4.4062095 0.009943994 0.057333466
000120 ed 3b 1f ba ae 36 28 3e 34 46 c3 3c 5e dd 39 3e
       -0.0006074298 0.16427109 0.023837186 0.18150851
000130 81 64 e9 bb eb 6d 4e 3d ca f5 36 bd 9d 89 58 3d
       -0.0071225767 0.050397795 -0.044667996 0.052865613
000140 d7 8a c9 bb fb 29 0f 3e 69 88 63 bc 3a 7b 11 3e
       -0.006150584 0.13980858 -0.013887503 0.14207163
000150 3a 2a 26 3e c6 7f 12 3e 1c 30 32 bf be 82 52 bf
       0.16227046 0.14306554 -0.6960466 -0.82230747
000160 54 78 07 bf 1a 58 83 be 82 57 a1 bf 4e 7e 6d be
       -0.5291798 -0.25653154 -1.260483 -0.23192713
000170 d7 62 ff bf a4 1d 9a be 5e 94 e4 be 62 e5 f1 bd
       -1.9952039 -0.3010074 -0.44644445 -0.118113294
000180 fe 76 e4 be 03 32 08 bd fd 88 0b bf ca 1e dd 3c
       -0.44622034 -0.03325082 -0.545059 0.02699222
000190 6c 5c 30 bf fe c4 59 3d 92 4b 36 bd c6 cb d7 bd
       -0.68891025 0.053166382 -0.044505663 -0.105369136
0001a0 a1 e7 c4 3e 2a 51 bc bc 91 51 ef 3e b4 09 76 3d
       0.3845797 -0.02298792 0.46741918 0.060067847
0001b0 c3 7d b6 3e a2 36 28 3d 7d 9e 48 3f f6 16 fd 3b
       0.35642824 0.041067727 0.78366834 0.0077236844
0001c0 6d d2 08 3f dd 2d 81 bc 47 41 0e 3f b9 9c 83 3d
       0.53446084 -0.01576894 0.55568355 0.06426377
0001d0 5b 5c 75 3e 9f 79 11 3e 69 4d 15 3f 55 76 6a bd
       0.23961012 0.14206551 0.58321244 -0.057241756
0001e0 cc 0c 42 3f e5 07 5f 3c 85 b1 7f 3f e8 f9 85 b7
       0.75800776 0.013612722 0.9988025 -1.5971207e-05
0001f0 67 0f 9a 3f df 31 d3 3c 8c 9d d9 3d 20 5a 42 3e
       1.203595 0.025780616 0.10625753 0.18979692
000200 28 41 1f bc 0b e1 41 3e 2a f0 73 3b e8 67 11 3d
       -0.009720124 0.18933503 0.0037222006 0.035499483
000210 84 95 6d 3a d1 35 9c 3b e8 df 41 bc 24 92 ce 3c
       0.0009063112 0.0047671576 -0.011833169 0.02521617
000220 03 61 00 3d 12 8c 84 bd 66 41 57 3b e4 18 c5 bc
       0.031342518 -0.06472029 0.0032845377 -0.02405972
000230 50 14 8d bc 8b 47 ef bc 74 03 14 bc 78 66 cc bd
       -0.0172216 -0.029208919 -0.009034026 -0.09980482
000240 af d4 cc 3c a0 b3 41 bd bd d0 85 3b c0 49 14 bb
       0.02500376 -0.047290444 0.0040837214 -0.0022626966
000250 90 de fd bb 3f a0 8b 3c aa 1e e4 3b 67 8d 2e 3e
       -0.007747479 0.017044185 0.0069616633 0.17046128
000260 f9 e8 3a 3c 72 aa 34 3e 67 bf 59 bc 66 61 a7 3c
       0.011408084 0.17643145 -0.013290263 0.020432185
000270 c7 72 ff 3c 58 20 7d c0 a6 e3 8f 3c a9 98 75 3d
       0.03118266 -3.955099 0.017564606 0.05996004
000280 e6 ea 3e bd 16 13 f0 3b 29 a6 6e bc eb d3 28 3d
       -0.046610735 0.007326494 -0.014565983 0.041217726
000290 39 b6 ec 3c 0b 6a 1a 3e 12 55 83 3b 1b 28 9a 3e
       0.028895484 0.15079515 0.004007944 0.30108723
0002a0 9a 27 8f 3e 98 ab 66 be 8d 53 05 3f 59 c3 e4 3e
       0.279599 -0.22526395 0.52080613 0.44680288
0002b0 fa 19 80 3e 2c 91 54 3e 85 1f 3d 3f 53 1e 48 3e
       0.2501982 0.20758504 0.7387622 0.19542818
0002c0 e5 0d b9 3f de 63 09 3e 5e d0 d1 be 6d 18 dd 3d
       1.4457365 0.13417003 -0.40979284 0.107956745
0002d0 c6 59 22 3e 6e 7b 88 3c 88 e7 22 3f f1 3f 08 be
       0.15854558 0.016660418 0.6363454 -0.13305642
0002e0 9b a0 41 3f 73 86 02 be 51 8a 61 bf 9f 94 c6 3d
       0.7563569 -0.12746601 -0.8810168 0.09696316
0002f0 b1 36 f7 3d d8 14 8e 3d 5d bd 2a 3f b8 b9 ed 3d
       0.120709784 0.069375694 0.66695195 0.11607689
000300 14 3e 49 3f b3 03 a7 3d 92 2a 0a bf 5e 30 3a 3d
       0.7861035 0.081550024 -0.5397121 0.045456283
000310 e8 46 7a 3e 52 95 2b 3c 2e c5 7d 3f 56 bb 11 3d
       0.24441111 0.010472612 0.99129 0.035579048
000320 d1 59 b3 3f 62 16 2a 3e c1 35 88 3d 57 60 0e 3c
       1.4011785 0.16610101 0.06650878 0.008689961
000330 94 84 b4 3e 46 0b 0d bd 9e 3b 59 3f 17 a1 c9 bc
       0.352574 -0.03443458 0.84856594 -0.024612946
000340 b1 a2 75 3f af 93 9b 3d 96 20 fb bd 4c a3 61 3e
       0.9595137 0.07596528 -0.12262075 0.22034949
000350 c8 9c 95 3c 29 30 bc 3f e5 c9 8e bb e8 33 10 3f
       0.018263236 1.4702197 -0.004357564 0.563292
000360 dc 90 fc 3b 20 40 c4 3e 12 57 04 3c 03 b5 99 3e
       0.0077076983 0.38330173 0.0080774 0.30020913
000370 eb d4 93 3c 27 17 87 3d 9c 6c 07 3c cf 99 21 3d
       0.018045863 0.06596213 0.008265641 0.039453324
000380 68 51 af bb 70 9f 22 bc 60 90 1d bd d8 d5 54 c0
       -0.0053502806 -0.009925708 -0.038467765 -3.325552
000390 ea 23 84 3b 50 b0 f0 3d 49 e1 e9 bc 07 8c 1e 3e
       0.0040326016 0.11752379 -0.028549807 0.15483104
0003a0 62 54 07 ba b9 27 58 3e c0 96 33 3d 9f 30 7f 3e
       -0.00051624153 0.21108903 0.04384494 0.24920891
0003b0 3f 31 13 bb 89 e5 5f 3d 04 9d d9 bb 1c 8e 19 3e
       -0.0022459773 0.05466226 -0.006641032 0.14995617
0003c0 28 4c 17 3d 0d 93 33 3e f0 64 04 bd 9b 77 82 3e
       0.036937863 0.17536564 -0.032322824 0.25481877
0003d0 df b7 50 bb dc cf 48 3e 74 f3 a1 3c bf f2 14 3e
       -0.0031847877 0.19610542 0.019769408 0.14545725
0003e0 67 b7 8b 3c 99 56 70 3e ce 99 da 3b 3a 82 00 3e
       0.017055226 0.23470534 0.006671167 0.12549677
0003f0 aa 11 1b be ce c8 99 bd 38 1d 16 bd 48 47 73 bf
       -0.15143457 -0.075090036 -0.03664896 -0.9503064

sequential_2/dense_7/MatMul f4 [10, 20]
000000 7f 46 4e 3f 64 07 20 40 96 38 2e bd 4e 98 cb 3f
       0.8057632 2.500451 -0.042534433 1.5905855
000010 8e 3f b0 3c e9 63 8b bc 45 aa f8 3c 0f 14 5d bd
       0.02151468 -0.017015414 0.030354628 -0.053974207
000020 96 1c 19 bd fc 07 93 3f 22 3e f5 3c 58 b8 a7 3c
       -0.037380777 1.1486812 0.029936854 0.020473644
000030 d4 81 d0 bc 01 d3 9e 3c 79 e9 a8 3d 8b 7b 4e bd
       -0.025452532 0.019387724 0.082476564 -0.05041079
000040 33 9a 0a bd d6 c8 35 40 12 59 a5 3e d2 4f 53 3f
       -0.033838462 2.840383 0.32294518 0.8254367
000050 38 77 06 3f dd 72 d8 3f 76 9f 5c 3f 50 aa 68 3e
       0.52525663 1.6910053 0.8618082 0.22721219
000060 8d 75 db 3d 20 47 5b be 42 2d cf be 2c 5e eb bd
       0.107157804 -0.21413851 -0.40464216 -0.11492571
000070 8e 10 17 be 56 79 31 3e 94 60 9a be 33 4f e3 3d
       -0.14752409 0.17331442 -0.30151808 0.110990904
000080 05 4e 97 be 9a 99 24 3f 13 05 45 be bd 5f 51 3f
       -0.29551712 0.6429688 -0.19240217 0.8178671
000090 f1 98 2e 3f c1 2d 0f bd 33 f1 a1 be be 28 fc 3e
       0.6820212 -0.034955744 -0.31629333 0.49249834
0000a0 83 6b 33 bc e5 ae 38 3e 3f 13 cb 3f b8 99 29 3d
       -0.010950926 0.18035467 1.5865248 0.041406363
0000b0 be f6 3d be 50 2d 1d 3d 7d 0c b6 bd eb 03 8c be
       -0.18551156 0.03837329 -0.08889101 -0.2734674
0000c0 bb 5d 9d be 64 00 93 3d 55 44 ae bd 81 96 3c be
       -0.30735573 0.07177809 -0.08509127 -0.18416788
0000d0 9e d8 95 3e d0 b6 01 be 4f 16 39 3f f9 ca c3 3f
       0.29266828 -0.12667394 0.72299665 1.5296317
0000e0 27 21 ea bd 4d a8 ea 3d 93 29 76 ba 84 60 0d bd
       -0.114321046 0.11457882 -0.00093903503 -0.034515873
0000f0 88 76 8e 3e 84 cf a4 be 6f d3 d1 3d d7 46 97 3e
       0.27824807 -0.32189572 0.10245406 0.29546234
000100 b3 ad a3 3d 27 a5 0e 40 0c 6e 41 be ab 98 ce be
       0.07992115 2.22883 -0.18889636 -0.4035085
000110 36 82 be be b1 9f 81 3e 7a 99 11 be 60 92 9a 3d
       -0.37208718 0.25317147 -0.14218703 0.0754745
000120 99 6b 13 3f 84 48 33 bf 8c 20 a7 3d 96 c2 b3 3d
       0.57586056 -0.70032525 0.08160505 0.08777349
000130 3a ea 3a bf ad 76 8d be 4c b5 f1 bb 27 5a 96 3e
       -0.7301365 -0.27629605 -0.0073763486 0.29365656
000140 07 3b 01 3d cf 7d 88 bf 65 21 42 be 57 40 e8 3e
       0.031550433 -1.0663394 -0.18958052 0.45361587
000150 d4 9b 84 bd a4 64 e8 3f e8 0e 32 40 ff 2e 9e bd
       -0.06475034 1.8155713 2.7821598 -0.077238075
000160 42 58 25 bd b2 25 23 3f 82 57 f5 3f 95 b0 36 bd
       -0.040367372 0.63729393 1.916733 -0.044601995
000170 43 99 d4 3f 44 ab 62 3d 13 96 dd 3e 0a 20 3e be
       1.6609272 0.055339113 0.4327856 -0.1856691
000180 36 f0 c7 3c 78 06 43 bd 5d 36 9b 3e 82 2b ca 3c
       0.024406534 -0.04761359 0.30314913 0.02467895
000190 19 e0 18 c0 16 83 0c 3f 76 3d 0e be 34 5d a9 3e
       -2.3886778 0.5488752 -0.13890633 0.3307892
0001a0 7e ff c5 bf b6 a3 6f be 1c 1e 83 3d 0c 24 2d bd
       -1.5468595 -0.23402295 0.06402227 -0.042270705
0001b0 ed 32 05 bd cf f1 d8 3e 8e f5 44 bd e4 a6 e7 bf
       -0.03251927 0.42371985 -0.04808574 -1.8097806
0001c0 f4 89 ce 3e 2a 76 e1 bd de 44 0d be 90 03 f9 bd
       0.40339625 -0.11008866 -0.13795802 -0.121588826
0001d0 81 6c 06 be 6c 09 c1 bd 41 87 80 3d 08 6b 24 c0
       -0.13127328 -0.09425625 0.06275798 -2.5690327
0001e0 77 00 85 bc e1 52 93 40 39 5a 96 3e f9 12 77 3f
       -0.016235573 4.603867 0.2936571 0.96513325
0001f0 58 6a da 3c 76 b0 59 3d 79 79 a3 3f d2 cc f9 3f
       0.026662037 0.053146802 1.2771446 1.9515631
000200 c6 0f e5 3f 3d 79 0e be 13 64 9d 3f 0d a1 c2 3c
       1.7895439 -0.13913436 1.2296165 0.023758436
000210 16 28 ad bd 2c d2 0f bd a7 97 12 bf c6 72 91 3e
       -0.084549114 -0.035112545 -0.57262653 0.28407878
000220 e5 28 53 bc a8 84 bf bf 7c 84 1b 3f f1 ea ce bb
       -0.012888168 -1.4962358 0.6074903 -0.0063146283
000230 1e 54 e6 bf 8c b6 7c 3f 21 6c 50 bf 0b 25 1c 3d
       -1.799442 0.98716044 -0.8141499 0.038121264
000240 a3 35 76 3f 6e 88 9e bd 5a 18 98 bc 97 d7 f4 3c
       0.96175593 -0.07740866 -0.0185663 0.029887957
000250 8c ff 6b 3d dd f0 f4 bb db 51 4f bc 58 47 84 3f
       0.057616755 -0.007475002 -0.012653793 1.0334272
000260 21 21 df 3d f6 53 f7 3e 64 70 eb 3e e2 7a 3f bf
       0.10894991 0.48306245 0.45984185 -0.7479688
000270 65 c3 ea 3e 47 21 d2 bb 5c 42 0e 3f 24 8a d0 bf
       0.458522 -0.0064126584 0.55570006 -1.6292157
000280 4f d9 35 bd 75 0f d6 3e 10 b6 aa 3e ae 9b a2 3e
       -0.044396695 0.41808668 0.33342028 0.317594
000290 78 2d e1 3d e2 91 03 3f d9 e6 81 3e e9 e3 89 3e
       0.109950006 0.51394475 0.25371435 0.26931694
0002a0 cc b4 63 3e 04 07 26 3e 4c 2d 7a 3e 34 31 d5 3d
       0.22236937 0.16213614 0.24431342 0.104097754
0002b0 2c 9a 2a 3f 23 32 c8 bd 97 1c 66 be dc 0e a1 3e
       0.666415 -0.09775188 -0.22471844 0.3145665
0002c0 34 fe b4 bd 4d 04 9b c0 3b f5 2f be c4 21 20 bd
       -0.08837548 -4.844275 -0.17183392 -0.0390947
0002d0 53 fa 05 bc 8d 9e e0 3f e4 8c ce 3c c3 66 d9 3f
       -0.008177358 1.7548386 0.025213666 1.6984485
0002e0 4e b2 89 3b 16 21 93 3e 22 28 51 40 ff b3 91 3d
       0.004202164 0.2873618 3.2680745 0.0711441
0002f0 0c 54 eb 3c 56 d8 c8 3f 8c a2 12 40 9a 72 d9 3c
       0.0287266 1.569102 2.291171 0.026543904
000300 0e bb 9a 3f 48 bb 85 ba d6 10 e8 be 13 73 18 bb
       1.2088335 -0.0010202909 -0.45325345 -0.002326195
000310 25 be 02 bc 3a b5 df 3f 49 94 7e be d8 55 19 bb
       -0.007979904 1.7477181 -0.24861254 -0.0023397114

sequential_2/dense_8/MatMul f4 [26, 10]
000000 dd da 63 bf e8 2c 7d be 7f 86 cb 3e 77 1a d9 3d
       -0.89005834 -0.24724162 0.3975105 0.10600751
000010 6b 75 a1 bf 32 c9 18 bf af f6 0c 3f 10 61 ac bd
       -1.2613958 -0.59682 0.5506391 -0.08416951
000020 0b 12 3a bf cd 54 1f 3f a4 12 74 3f a4 be 17 c0
       -0.7268378 0.6223877 0.95340943 -2.3710108
000030 36 b7 56 bf 1b 02 33 bf fc 4c 15 bd 59 0a 6c be
       -0.8387331 -0.6992509 -0.03645037 -0.23050822
000040 36 5f b8 be a6 d5 77 c0 54 cf 0b 40 14 a5 f0 bc
       -0.3601014 -3.872415 2.1845293 -0.02937559
000050 f7 a8 53 3f e9 66 c9 3e 93 5c 54 bf f8 f2 7f bf
       0.82679695 0.39336327 -0.8295376 -0.99980116
000060 0a 0e 4f 3f 01 cd 0d bf cf eb 4b be f2 55 23 3f
       0.80880797 -0.55390936 -0.19914173 0.6380302
000070 e1 cc 8c 3f ab 50 be be eb e0 5c bf 3d b6 db be
       1.1000024 -0.3717092 -0.862807 -0.42912474
000080 9c cd 27 c0 17 20 69 3f 8a f0 9f bf 40 b0 c8 bf
       -2.6219244 0.9106459 -1.2495282 -1.5678787
000090 f8 57 a8 be 9a 72 c5 be 31 49 0d be 32 cb b7 3f
       -0.32879615 -0.38563997 -0.13797452 1.4358885
0000a0 3f 0e 0a bf 33 c9 65 be 66 db 8d bf c4 31 10 bf
       -0.5392799 -0.22440033 -1.108258 -0.56325936
0000b0 37 70 bc bf 8b ba 4d be 8f 50 05 3e 28 4c b0 bf
       -1.4721745 -0.20090692 0.13019012 -1.3773241
0000c0 16 b4 3b 3e 2d 93 a6 3f 40 29 a6 3f a7 45 5d bf
       0.18330416 1.3013664 1.2981339 -0.86434406
0000d0 ed f3 04 3f bb ff 24 c0 9a 0c ff 3e bb a9 f1 be
       0.519347 -2.5781085 0.49814302 -0.47199807
0000e0 16 b6 04 bf 11 63 59 be 56 18 46 40 a2 59 d7 be
       -0.5184034 -0.21229197 3.0952353 -0.42060572
0000f0 3f 50 f2 bf 22 61 a8 3f 13 a1 a8 bf 83 d9 bf be
       -1.8930739 1.3154643 -1.3174156 -0.37470636
000100 61 ca 65 3f 20 67 c8 bf 92 70 18 c0 a0 30 03 bf
       0.8976193 -1.5656471 -2.3818707 -0.5124607
000110 52 16 32 3f 8e ed e8 bf 8a 8f 38 bf 02 c9 80 3f
       0.6956531 -1.8197496 -0.72094023 1.0061343
000120 0f 02 85 bf f6 9a 8d be 3f 8a ef 3e 07 3e a1 bf
       -1.0391253 -0.27657288 0.4678516 -1.2597054
000130 f5 53 61 c0 3a c6 8e 3b a3 16 0f 3f 89 fc a1 3e
       -3.5207493 0.0043571265 0.55893916 0.31637982
000140 12 98 87 bf 9d ca 3a 3f 54 de bb bf ae 8a 7e be
       -1.0593283 0.72965413 -1.4677224 -0.2485759
000150 55 2b 89 be 52 6a 40 be f0 25 72 3e 4b 42 af bf
       -0.26790872 -0.18790558 0.23647285 -1.3692106
000160 f6 de 7b bf db a3 1b 3f 2d 1e 7c bf 02 15 7c 3f
       -0.98387086 0.607969 -0.98483545 0.98469555
000170 c8 d7 f3 be b3 96 31 bf 25 6f 5c bd e0 3a c8 bf
       -0.47625566 -0.69370574 -0.053816933 -1.5642967
000180 fe 04 d8 bd b8 a1 23 be 52 2f 3a bf 6b 2c 0e 3f
       -0.10547827 -0.1597966 -0.72728455 0.55536526
000190 9d 0f 50 bf 2b 98 2c 3e 67 9e f3 bf 09 60 0a bd
       -0.81273824 0.16854922 -1.9032716 -0.033782993
0001a0 fb a4 f6 3e 4d 25 ae 3f f2 b4 73 c0 3d 84 90 c0
       0.48172745 1.3605133 -3.807919 -4.5161424
0001b0 b4 c9 78 3e 1d c4 8c be 85 b9 02 c0 e8 af 39 bf
       0.24295694 -0.27493373 -2.0425732 -0.72534037
0001c0 cc bd 9f 3d 5b be 45 40 ea ec 34 c0 2a b6 c9 bf
       0.07799873 3.0897434 -2.82696 -1.5758717
0001d0 92 e4 a6 3f d1 07 3f bf 4d 07 11 c0 09 b3 a9 bf
       1.3038504 -0.746213 -2.2660706 -1.3257762
0001e0 9e 9a 30 3f 3f b8 af bd 82 b9 04 3f c5 52 5a bf
       0.6898593 -0.08580064 0.5184556 -0.85282546
0001f0 62 5c 50 3f 2f 66 da be 64 38 ad 3e d6 5f 9e 3e
       0.81390965 -0.42656085 0.33832085 0.30932492
000200 70 d3 08 3e d4 da 4a bf 68 c0 34 3f 6c 58 23 bd
       0.13361907 -0.79240155 0.7060609 -0.039879248
000210 3d ac 09 3f d7 19 94 bf 9e a1 58 3f 5f 5e 23 bf
       0.5377844 -1.1570386 0.8462161 -0.63815874
000220 a5 6e 95 3e 0a 0f a6 3e 10 0b 58 3e cc b2 62 bf
       0.29185978 0.3243335 0.2109797 -0.8855407
000230 da 1e 05 be 16 b2 97 bc b4 f4 8f bf 62 c6 2e bf
       -0.1300005 -0.018517535 -1.1246552 -0.6827146
000240 33 c1 79 bf e7 2f 9e bf d9 2f a1 be 71 be 19 be
       -0.97560424 -1.2358369 -0.31481817 -0.15014054
000250 b4 f4 9e 3f b3 72 91 3f c9 35 da 3e 81 fe 3a 3f
       1.2418427 1.1363128 0.4261916 0.7304459
000260 cb d7 43 bf f1 6b 0b bf c2 8d 84 3f 91 d2 05 be
       -0.7650115 -0.5446158 1.0355761 -0.13068606
000270 88 d4 a7 be 32 f7 2b 3f b9 a9 b0 3e f4 d6 e4 bf
       -0.32779336 0.67174065 0.34504488 -1.7878098
000280 ca c1 94 3f 75 90 8e 3e f9 70 60 be 54 35 80 bf
       1.162164 0.27844587 -0.21918096 -1.0016274
000290 ec e5 c4 be d4 f5 8e 3e 79 a9 a7 be cd 2f 5c 3f
       -0.38456666 0.27921927 -0.32746485 0.8601044
0002a0 12 6f 97 3d e2 13 39 c0 76 54 48 bf f9 27 00 c0
       0.07394232 -2.8918386 -0.7825388 -2.0024397
0002b0 1b 1f 58 3e 96 d5 1e 3f a2 15 06 bf 6e af bb 3f
       0.21105616 0.62044656 -0.5237676 1.4662912
0002c0 ba 7b 23 c0 16 36 11 c0 0a a8 ec bd f6 0e bd 3e
       -2.5544267 -2.2689261 -0.115554884 0.36925477
0002d0 36 99 6c bf 8c d8 95 bd 1f 51 65 be 5a 2f 4c bd
       -0.9242128 -0.07316694 -0.22394226 -0.049849845
0002e0 6f d8 ba bf dd 35 ff be 8f 4f cd 3e d2 b8 54 bf
       -1.45973 -0.49845782 0.4009976 -0.83094513
0002f0 55 3e 23 bf 86 d0 90 3f 91 1d 1b bf 03 c3 4f bf
       -0.63766986 1.1313636 -0.6059199 -0.8115694
000300 7d ba 24 3f 7a 20 83 3f 88 a1 95 bf 63 a4 a3 bf
       0.6434706 1.0244286 -1.168992 -1.2784542
000310 73 c1 42 3f f2 9c 58 be 1a d2 4c bf 73 55 21 3f
       0.7607643 -0.2115362 -0.8000809 0.6302101
000320 24 5f 10 bf 19 97 8c bf cd 76 43 c0 7f 7c 9c 3d
       -0.56395173 -1.0983611 -3.054126 0.07640933
000330 3f a9 c1 3d e5 53 66 3f b7 92 6d c0 09 80 5a c0
       0.09456109 0.8997176 -3.7120798 -3.4140646
000340 83 ea 87 3e 62 a4 5f 3c 33 c2 f3 be 72 8d ba be
       0.26546106 0.013650032 -0.476091 -0.3643604
000350 f0 96 5a c0 20 fb 29 be 2a e5 1f 3f ee 40 95 3f
       -3.4154625 -0.16599703 0.6245905 1.166044
000360 fc d7 8b c0 a9 b4 93 c0 bd ba 90 3e 8b a7 d3 be
       -4.3701153 -4.6158032 0.2826747 -0.41338763
000370 f8 b3 a5 3f 6d cf fa bf 41 c2 91 bf ff 82 b8 be
       1.2945547 -1.9594551 -1.1387407 -0.36037442
000380 95 f8 10 3e 53 b7 65 3f 2f ac c3 be da 1d 0b c0
       0.14157327 0.89732856 -0.38217303 -2.173697
000390 72 ad db 3f 7f fb 3b bf f9 f5 b9 bf 9b 75 59 3f
       1.7162306 -0.7343063 -1.452819 0.84945077
0003a0 22 e5 c3 bf b0 fc 96 3f 35 24 44 bf 4a 0b 8d 3e
       -1.5304301 1.1795864 -0.7661775 0.27547675
0003b0 05 ca 11 3f 46 a9 85 bf e0 93 aa bf 15 a7 01 3f
       0.5694888 -1.0442283 -1.3326378 0.5064557
0003c0 9e 3a b4 bf ea 61 b1 bd d7 7d 85 3f a5 83 b8 bf
       -1.4080389 -0.08661254 1.0429028 -1.4415175
0003d0 d5 cb 0e bf 25 d9 c6 3e 51 f1 cc 3e 16 42 29 3f
       -0.55779773 0.38837543 0.4002786 0.66116464
0003e0 c5 58 85 bf df ba 2a 3f b3 d2 9a bf 33 4f a2 3f
       -1.0417715 0.6669139 -1.209555 1.268042
0003f0 db 54 bc bf 03 5a bb 3e 22 1a 63 3e 50 25 9d bf
       -1.4713396 0.3659211 0.22177938 -1.2277012
