Src_code/model/keypoint_classifier/model_versions/org/keypoint_classifier_org.tflite (tflite, 7244 bytes, 6 tensors)

dense_2/bias f4 [26]
-0.38608953 -0.16751006 1.0603404 0.5427515 -0.74320966 0.20620106 -0.5604909 -0.48242345
-0.488053 -0.46501496 -0.4398871 -0.5152663 -0.48953137 -0.46770096 -0.56926924 -0.46271643
-0.52356404 -0.4641347 -0.51048136 -0.5361304 -0.553532 -0.51757634 -0.44485492 -0.4276314
-0.39827377 -0.5200611
00000000: 87ad c5be c287 2bbe 3cb9 873f c3f1 0a3f
00000010: fd42 3ebf 5f26 533e 557c 0fbf 3500 f7be
00000020: 15e2 f9be 7116 eebe e238 e1be 7ee8 03bf
00000030: dba3 fabe 8076 efbe a1bb 11bf 2be9 ecbe
00000040: 4b08 06bf 10a3 edbe e8ae 02bf d83f 09bf
00000050: 46b4 0dbf e27f 04bf 06c4 e3be 81f2 dabe
00000060: 8aea cbbe b922 05bf

dense_1/bias f4 [10]
-0.54321533 0.9658082 0.7204084 0.19970383 1.3338691 0.53567904 0.485596 -0.16337883
-0.9786141 1.2228671
00000000: 2910 0bbf 353f 773f af6c 383f 297f 4c3e
00000010: 39bc aa3f 4322 093f 0aa0 f83e c84c 27be
00000020: 7486 7abf e986 9c3f

dense/bias f4 [20]
-1.0862011 -0.0796175 -0.92040193 -0.94122994 -0.511898 -0.56864774 -0.8133893 -0.9566704
0.3802251 0.427124 -0.4550518 -0.74125755 -0.11610002 0.8253529 -1.0565836 -0.13006912
0.41156682 -0.961335 -0.5048228 -0.4166277
00000000: a308 8bbf 800e a3bd 769f 6bbf 72f4 70bf
00000010: bf0b 03bf e692 11bf 483a 50bf 5ae8 74bf
00000020: ddac c23e ffaf da3e 8dfc e8be 0ec3 3dbf
00000030: d9c5 edbd 544a 533f 223e 87bf d730 05be
00000040: e3b8 d23e 0d1a 76bf 113c 01bf 3a50 d5be

sequential/dense/MatMul f4 [20, 42]
0.2954458 -0.16067055 -0.09763038 -0.547056 0.06254672 -0.5829895 -0.042333495 -0.24843778
-0.0738166 -0.20938031 -0.02802403 -0.2668384 -0.02455768 -0.096070796 -0.040560737 0.05717929
-0.003709447 0.09542755 0.09905732 -0.22723112 -0.03194224 -0.113541916 0.020318279 0.08014029
0.03452729 0.13454002 0.00817357 -0.22727172 -0.043358985 -0.21974134 0.02780147 0.10605301
0.044574868 0.1610087 -0.11226446 -0.38578036 -0.07209247 -0.458628 -0.018391833 -0.03994873
0.02554419 0.060430426 -0.06871748 -0.0520145 0.11194368 0.23613957 0.16505662 -0.5371378
0.2695467 -0.7397453 0.4188307 -0.7549073 -0.73160595 -0.24071611 0.06501862 -0.41971523
0.39386556 -0.11196461 0.489165 0.291513 -0.53576076 -0.25381738 -0.17244829 -0.30172697
0.14774488 0.0016444812 0.2186555 0.23396063 -0.4480121 -0.13175024 -0.40245998 -0.12706116
-0.41380718 0.16029684 -0.09087155 0.3043732 0.16907585 -0.15838699 -0.35431933 0.18663573
-0.47155285 0.3162348 -0.735967 0.36380583 -0.12459719 -0.0024612844 0.6027601 -0.4795517
0.33418986 -0.1766848 0.15733351 -0.8997934 0.048988104 -0.10617024 0.42249295 -0.085256524
-0.09413771 -0.003578954 -0.21730387 0.15238331 -0.24312443 0.1576904 0.42308047 -0.056618497
-0.015838295 -0.03785228 -0.051253416 0.086448014 -0.093315974 0.17790693 0.19664426 -0.21308662
0.13144599 -0.14243756 -0.017525898 0.11628559 -0.022822214 0.15833595 0.19742858 -0.5815185
0.12025507 -0.2772665 0.04885871 -0.063329004 0.05544341 0.02664991 -0.2052604 -0.12552156
-0.58567077 -0.1978753 -0.25828844 -0.099716134 -0.2400607 -0.1442053 -0.39708424 -0.16127957
-0.33602443 0.03375996 -0.057131566 0.024129646 0.16738705 0.15843046 0.2783491 0.2981394
-0.12792821 0.050609823 0.031120097 -0.12604557 -0.20319138 -0.48885563 -0.8835072 -0.9823841
0.14148618 0.06510757 0.26165012 -0.0690213 -0.08723986 -0.42721033 -0.7747004 -0.6286627
0.13102336 0.13830557 0.27733243 0.04245666 0.15389492 0.08056092 -0.28822315 0.40597236
-0.09671092 -0.21967758 0.52524924 0.28602394 0.10952305 0.17372425 0.09310398 0.06247159
-0.028458858 0.056758232 0.1136064 0.21656765 0.00095854164 0.08768657 -0.24874282 0.06558874
-0.3314249 -0.16697761 0.15030204 0.21366121 0.096148506 0.07582719 0.56647 -0.21583861
0.97395086 -0.9298899 0.03787278 0.25479987 -0.044118203 0.07333458 0.56510675 -0.16274612
1.3070792 -1.2163267 0.13616976 0.29234257 -0.099960566 0.22193286 -0.09105792 0.23641567
-0.06938453 0.14434446 0.016889006 0.02224189 0.15867111 0.51793766 0.061421297 0.32528055
0.26504213 0.28291458 0.5201358 0.28650957 0.026219979 0.06847724 -0.019585632 0.10471251
-0.07364192 -0.003911366 -0.0844741 -0.16808951 0.14745176 0.04419022 0.036352955 0.13915472
-0.13404304 0.004778238 -0.2704917 -0.49520963 0.39420447 0.07631046 -0.031711124 0.08967351
-0.2540496 -0.21576805 -0.37567416 -0.47378874 0.4660998 0.16503654 0.058595557 0.14598304
-0.58802 -0.20295246 -0.97581017 -1.0114197 0.21400583 0.19884932 0.65846366 0.6623448
00000000: ac44 973e d286 24be 70f2 c7bd dd0b 0cbf
00000010: 7f18 803d cd3e 15bf e365 2dbd 7966 7ebe
00000020: 282d 97bd cb67 56be a792 e5bc 0b9f 88be
00000030: 302d c9bc c4c0 c4bd 0423 26bd d534 6a3d
00000040: 321a 73bb 856f c33d 90de ca3d 46af 68be
00000050: ded5 02bd aa88 e8bd 8572 a63c 9820 a43d
00000060: 7d6c 0d3d dcc4 093e 70ea 053c ebb9 68be
00000070: 3199 31bd e003 61be e9bf e33c 5232 d93d
00000080: 2394 363d 77df 243e e9ea e5bd 0185 c5be
00000090: 38a5 93bd 4ad1 eabe 78aa 96bc 48a1 23bd
000000a0: 0d42 d13c e585 773d c0bb 8cbd 280d 55bd
000000b0: ba42 e53d 92ce 713e 9a04 293e dd81 09bf
000000c0: 0602 8a3e f35f 3dbf fa70 d63e 9b41 41bf
000000d0: 874a 3bbf 497e 76be 7b28 853d eae4 d6be
000000e0: bfa8 c93e b44d e5bd d673 fa3e 3141 953e
000000f0: 9e27 09bf 5af4 81be 4996 30be f57b 9abe
00000100: 6f4a 173e a28b d73a 3ae7 5f3e 6093 6f3e
00000110: d861 e5be 89e9 06be 3c0f cebe 521c 02be
00000120: 89de d3be db24 243e dd1a babd ced6 9b3e
00000130: 3822 2d3e 3330 22be 5869 b5be 701d 3f3e
00000140: 606f f1be 87e9 a13e 5568 3cbf c244 ba3e
00000150: d02c ffbd 804d 21bb 7c4e 1a3f cd87 f5be
00000160: ef1a ab3e dcec 34be 091c 213e dc58 66bf
00000170: c0a7 483d c86f d9bd ff50 d83e f99a aebd
00000180: 46cb c0bd e28c 6abb e884 5ebe 5f0a 1c3e
00000190: 9cf5 78be 9879 213e 019e d83e cce8 67bd
000001a0: 50bf 81bc fe0a 1bbd 1aef 51bd a80b b13d
000001b0: 721c bfbd 3c2d 363e 1d5d 493e 6133 5abe
000001c0: c799 063e 27db 11be 7992 8fbc 2427 ee3d
000001d0: a7f5 babc d222 223e b82a 4a3e 65de 14bf
000001e0: 4a48 f63d e0f5 8dbe 1220 483d a3b2 81bd
000001f0: a118 633d e950 da3c c82f 52be b988 00be
00000200: 85ee 15bf d39f 4abe 623e 84be f937 ccbd
00000210: 79d2 75be 8eaa 13be a04e cbbe 7926 25be
00000220: 650b acbe e247 0a3d ca02 6abd 89ab c53c
00000230: 8367 2b3e 983b 223e c683 8e3e baa5 983e
00000240: 9dff 02be 3f4c 4f3d 93ef fe3c 1712 01be
00000250: 6711 50be 494b fabe 872d 62bf 867d 7bbf
00000260: c1e1 103e 1e57 853d 01f7 853e 0a5b 8dbd
00000270: d0aa b2bd 50bb dabe c452 46bf 0af0 20bf
00000280: fd2a 063e fa9f 0d3e 84fe 8d3e 09e7 2d3d
00000290: a196 1d3e 20fd a43d fc91 93be 9cdb cf3e
000002a0: 6010 c6bd 29f3 60be bc76 063f bb71 923e
000002b0: 9f4d e03d c5e4 313e 4dad be3d 36e2 7f3d
000002c0: 8d22 e9bc 527b 683d 79aa e83d e9c3 5d3e
000002d0: a446 7b3a 0495 b33d 70b6 7ebe 6453 863d
000002e0: 86b0 a9be 2efc 2abe c7e8 193e 01ca 5a3e
000002f0: 82e9 c43d 494b 9b3d 2e04 113f cc04 5dbe
00000300: d854 793f 440d 6ebf 7d20 1b3d 2175 823e
00000310: 4ab5 34bd 7130 963d d6aa 103f eba6 26be
00000320: 5f4e a73f 98b0 9bbf 1670 0b3e edad 953e
00000330: 20b8 ccbd 5e42 633e 937c babd f316 723e
00000340: 7a19 8ebd 09cf 133e d05a 8a3c a034 b63c
00000350: ae7a 223e 9097 043f e694 7b3d 2c8b a63e
00000360: 9ab3 873e 2eda 903e 9f27 053f 62b1 923e
00000370: 48cb d63c cc3d 8c3d 0c72 a0bc 8373 d63d
00000380: 93d1 96bd eb2a 80bb c200 adbd a81f 2cbe
00000390: 98fd 163e ce00 353d d6e6 143d 937e 0e3e
000003a0: 9442 09be c492 9c3b e37d 8abe 1e8c fdbe
000003b0: 2bd5 c93e a948 9c3d 86e3 01bd bfa6 b73d
000003c0: ca12 82be 4df2 5cbe 5d58 c0be 7094 f2be
000003d0: a2a4 ee3e 57ff 283e e501 703d 947c 153e
000003e0: 7b88 16bf c5d2 4fbe b2ce 79bf 3376 81bf
000003f0: 5824 5b3e 289f 4b3e 1391 283f 6e8f 293f

sequential/dense_1/MatMul f4 [10, 20]
1.0136313 -0.7744588 -0.07756782 -0.5523312 -0.011150123 0.18252458 0.16686432 -0.114557624
-0.16732267 0.42676473 -0.1114572 -0.3285799 0.60270995 -1.0604975 -0.9166815 0.07245761
-1.2460371 0.04814921 -0.15677208 -0.00767477 0.21196714 0.75167614 0.7106497 0.29587027
0.09536686 -0.31981766 0.2763279 0.25945607 1.1541582 0.2974117 0.21233775 -0.14831057
0.8722132 0.87125635 -0.11855797 0.40652308 1.0870996 0.06991812 0.13531902 0.42451218
-0.052213185 0.2995255 0.18117279 0.58129585 0.6062351 1.2270355 0.29403052 0.028243084
-0.50610083 -0.91461176 -1.6908913 0.7981911 -0.41697943 -0.56210524 0.6451237 -0.12647383
-0.4664451 0.09068645 0.87749255 0.38824353 0.0011120844 0.14451681 -0.10399559 1.7269999
0.614134 0.58962584 0.30412704 0.07724277 0.7045743 0.50777984 1.6114275 0.61373186
0.29746184 1.046461 1.0659243 0.1682066 0.9382001 0.18070315 0.56833696 0.93279266
0.3386751 0.3566013 0.38735256 -0.36057454 -0.9466058 -0.98700124 0.2697658 0.307266
-1.0095692 0.049282633 0.16251479 -0.4244204 -0.28961053 0.20469107 -1.0007392 -1.3078737
0.20610574 0.109230496 -1.217365 -0.031964373 1.6856232 0.42931473 1.1555945 0.112193145
-0.0925345 -0.15028244 0.26920182 1.431407 -0.078039065 -0.23704664 -0.0025496667 0.05254135
0.17759645 0.014155146 0.467202 0.20756553 0.103880584 1.1141247 -0.08442916 0.31866086
0.46279883 0.06905842 0.82035196 -0.22785065 0.69965994 0.7336692 0.8282855 -0.09995981
0.037094068 -0.21958606 0.73800975 -0.06181222 0.095345534 -0.732293 -1.1466932 -0.14068916
-0.029205933 1.5523658 0.01875104 -0.3934045 0.8425951 0.60735196 1.3050555 0.23524809
-0.15326914 0.25260645 0.8948804 0.7939798 0.015777085 0.30389524 0.021276386 0.5796192
-0.11765307 0.16151057 0.9339051 -0.12635964 0.13680077 0.5841317 0.5346352 -0.119878285
-0.13611272 0.39852604 -0.10032384 0.0045950124 -0.45102122 0.59605294 1.0128889 -0.041016176
0.010364428 -0.1858259 0.6994685 -0.040761888 0.03992808 0.088551424 -0.11230033 0.8215426
-0.02906699 -0.0194788 0.025962071 0.17631806 -0.32214868 0.6530945 -0.25951767 -0.0838842
0.41785333 -0.11008 0.41019058 0.37997514 1.1918133 0.44181806 0.5517005 0.35760286
0.12752387 0.21109492 -0.62811947 -0.002218382 0.089077674 0.10080468 0.0018021234 0.029064417
00000000: acbe 813f ef42 46bf e1db 9ebd 9465 0dbf
00000010: 01af 36bc b9e7 3a3e 7bde 2a3e 309d eabd
00000020: a256 2bbe e880 da3e ac43 e4bd a03b a8be
00000030: 334b 1a3f 62be 87bf a4ab 6abf a864 943d
00000040: 257e 9fbf 1b38 453d dc88 20be a37c fbbb
00000050: ea0d 593e d96d 403f 24ed 353f 4f7c 973e
00000060: b34f c33d 24bf a3be da7a 8d3e 6dd7 843e
00000070: 75bb 933f 5946 983e 116f 593e bade 17be
00000080: 5d49 5f3f a80a 5f3f 85ce f2bd cb23 d03e
00000090: 1426 8b3f 3b31 8f3d 1291 0a3e a959 d93e
000000a0: 7edd 55bd 685b 993e 5c85 393e cecf 143f
000000b0: 3932 1b3f 800f 9d3f 2b8b 963e 0a5e e73c
000000c0: d38f 01bf ff23 6abf 206f d8bf 4056 4c3f
000000d0: 547e d5be 21e6 0fbf d426 253f 5b82 01be
000000e0: e4d1 eebe d1b9 b93d 5aa3 603f dbc7 c63e
000000f0: 5cc3 913a 37fc 133e a4fb d4bd 550e dd3f
00000100: e337 1d3f b8f1 163f 8ab6 9b3e 7531 9e3d
00000110: fb5e 343f dcfd 013f 4243 ce3f 881d 1d3f
00000120: eb4c 983e 6ff2 853f 3570 883f 5a3e 2c3e
00000130: e22d 703f 3f0a 393e 887e 113f 80cb 6e3f
00000140: d366 ad3e 7294 b63e 1353 c63e 3a9d b8be
00000150: c254 72bf 1dac 7cbf be1e 8a3e f851 9d3e
00000160: 9039 81bf 96dc 493d 476a 263e a14d d9be
00000170: d547 94be 899a 513e 3918 80bf 6868 a7bf
00000180: 620d 533e 3db4 df3d 9ed2 9bbf 13ed 02bd
00000190: 80c2 d73f 24cf db3e 85ea 933f 85c5 e53d
000001a0: ba82 bdbd a4e3 19be d2d4 893e 5838 b73f
000001b0: f2d2 9fbd 5bbc 72be 4f18 27bb 9935 573d
000001c0: d8db 353e fcea 673c 1a35 ef3e 0f8c 543e
000001d0: 58bf d43d a39b 8e3f 32e9 acbd 8427 a33e
000001e0: f8f3 ec3e 806e 8d3d 9602 523f ae51 69be
000001f0: ea1c 333f bfd1 3b3f 850a 543f bbb7 ccbd
00000200: f3ef 173d 2bdb 60be 35ee 3c3f cf2e 7dbd
00000210: 8544 c33d 8e77 3bbf d8c6 92bf d210 10be
00000220: 4841 efbc ecb3 c63f c89b 993c 516c c9be
00000230: 50b4 573f 6b7b 1b3f 0f0c a73f e0e4 703e
00000240: 96f2 1cbe a255 813e e216 653f 4342 4b3f
00000250: f23e 813c 2898 9b3e d14b ae3c ed61 143f
00000260: 18f4 f0bd 0763 253e 6814 6f3f 6c64 01be
00000270: 8015 0c3e a889 153f dadd 083f bf82 f5bd
00000280: 2261 0bbe 9b0b cc3e 9676 cdbd c291 963b
00000290: 41ec e6be ed96 183f 58a6 813f 9400 28bd
000002a0: 90cf 293c 2549 3ebe 5e10 333f f0f5 26bd
000002b0: a08b 233d 735a b53d b7fd e5bd 9e50 523f
000002c0: e51d eebc 0192 9fbc 69ae d43c b98c 343e
000002d0: acf0 a4be 3331 273f 80df 84be 7bcb abbd
000002e0: dff0 d53e 9f71 e1bd 8004 d23e 1a8c c23e
000002f0: 578d 983f fa35 e23e 3e3c 0d3f b917 b73e
00000300: 9e95 023e 4429 583e 70cc 20bf 4662 11bb
00000310: 5b6e b63d af72 ce3d 3a35 ec3a 8018 ee3c

sequential/dense_2/MatMul f4 [26, 10]
-0.5919963 0.44713876 0.4169361 0.6189939 0.11330514 -1.1358654 0.30768305 -0.023205029
0.95470995 0.55307555 0.37289524 0.45919958 -0.22843488 0.5484545 -0.538163 0.4575556
0.5547042 0.67316437 -0.38125956 0.041822795 -0.26351228 0.92333716 -0.119210735 0.10654106
0.14403021 0.12933125 -0.83734244 -0.68251187 -1.1156533 0.5723745 -1.5993687 -0.31236812
0.91327804 0.5548819 -0.5144541 -0.08818605 -0.47630358 -0.32009733 -0.41924334 -0.41304168
-0.061838627 0.040085956 0.42965207 0.2178756 -0.2659825 0.5968285 0.09210241 0.61345905
0.9325653 -0.491587 0.9407223 -0.26885548 0.66542256 -1.0097831 0.75874275 0.33246997
0.81138337 0.59518623 -0.22284651 0.43842965 -0.24215952 -0.69606966 -0.85056096 -0.9064247
-0.80227166 -1.27057 -0.5224757 -0.34548873 -0.21490483 -0.9040411 0.013041754 -1.3439225
-0.09255208 -0.8092874 -0.53807884 -0.66460747 -1.0586057 -0.42847395 -0.44945994 -1.0490526
-0.55326194 -0.81283087 -0.29362032 -1.024714 -0.44567645 -1.1010793 -1.1839056 -0.30289245
-0.10796446 -1.2917062 -0.6478779 -0.6231319 -0.64277023 -0.33694333 -1.1571208 -1.4411179
-1.0254997 0.04089429 -0.48768368 -1.1066481 -0.27888978 -0.95952684 -0.42157283 -0.5108884
-0.65058315 -0.9889799 -1.2631909 -0.36630815 -0.58554643 -1.3866334 -0.13988084 -1.1458591
-0.043598134 -0.59537446 -0.5587571 -0.8402889 -0.41716358 -0.62408954 -0.42126387 -1.1934987
-0.17716391 -1.477607 -0.4370336 -0.64125615 -0.6335591 -1.265723 -0.6764488 -0.4750001
-0.29328907 -0.77276915 -0.5520922 -0.4334603 -0.6083433 -1.0083114 -1.0640562 -1.2498794
-0.61811084 -0.29017425 -0.16555233 -1.4163691 -0.12782997 -0.5166838 -0.24894126 -0.3901297
-1.0927778 -1.5253842 -0.982233 -0.19152941 -0.91569835 -0.68414825 -0.47452256 -1.3467124
-0.57510483 -0.27588487 -1.0855978 -1.1975416 -0.86064655 -0.08060039 -0.21186581 -0.6571946
-0.39085338 -0.55712587 -0.53941905 -0.48036742 -0.51692086 -1.2934068 -1.0961108 -0.44263178
-0.2610676 -1.2928883 -0.08395572 -0.62476695 -0.47490185 -0.5374034 -0.8942975 -0.90190756
-1.3464166 -0.025340937 -0.3582088 -1.3000997 0.03455011 -1.1394575 -0.06174088 -1.0133344
-0.8618704 -0.9748578 -1.3137869 -0.29498202 0.012703527 -0.59184533 -0.13475482 -1.0225306
-0.26406926 -0.58302367 -0.28559065 -1.0278968 -1.1067675 0.044698175 -0.25505346 -0.8995587
-0.062638834 -0.51631016 -0.18939012 -0.31355098 -0.8854233 -0.93082815 -0.50987595 -0.2859249
-0.7925158 -1.2264458 -0.32953814 -0.4252065 -0.42314255 -1.0391835 -0.57600206 -0.79862624
-0.6209779 -0.5706044 -0.35625058 -1.6738614 -0.19236189 -1.3457766 -0.48161867 -0.7515889
-0.55210435 -0.71649563 -0.8533151 -0.60037136 -0.41220564 -1.3324891 -0.6725229 -1.3293849
-0.7807907 -1.0214669 -1.1523874 -0.45804462 -0.62246835 -0.2850946 -0.61595845 -1.1122099
-0.09600142 -1.4305642 -0.7100158 -0.7569121 -0.8114707 -0.5176697 -1.4037578 -0.24094848
-0.2138041 -1.1182935 -0.26481 -1.3285981 -0.2108387 -0.7598816 -0.40592796 -0.61235017
00000000: 128d 17bf 5fef e43e a678 d53e 6276 1e3f
00000010: 860c e83d 0a64 91bf a288 9d3e 7918 bebc
00000020: df67 743f 5c96 0d3f 20ec be3e 351c eb3e
00000030: d5ea 69be 8467 0c3f 0dc5 09bf ba44 ea3e
00000040: 1801 0e3f 8054 2c3f 7434 c3be 614e 2b3d
00000050: 15eb 86be d35f 6c3f c224 f4bd 3332 da3d
00000060: a87c 133e 696f 043e 135c 56bf 19b9 2ebf
00000070: bacd 8ebf 2387 123f 1db8 ccbf b7ee 9fbe
00000080: 97cc 693f bd0c 0e3f 44b3 03bf e39a b4bd
00000090: 10de f3be cce3 a3be 10a7 d6be 337a d3be
000000a0: 804a 7dbd 2c31 243d 5bfb db3e c81a 5f3e
000000b0: dc2e 88be c1c9 183f 30a0 bc3d a70b 1d3f
000000c0: 99bc 6e3f 4bb1 fbbe 2dd3 703f 6da7 89be
000000d0: 2259 2a3f 9340 81bf f73c 423f 8139 aa3e
000000e0: d2b6 4f3f 205e 183f e031 64be da79 e03e
000000f0: aaf8 77be 9f31 32bf 5dbe 59bf 730b 68bf
00000100: ad61 4dbf 0aa2 a2bf f8c0 05bf e6e3 b0be
00000110: 0310 5cbe 3d6f 67bf 15ad 553c a705 acbf
00000120: f28b bdbd 762d 4fbf 89bf 09bf b723 2abf
00000130: 6480 87bf f060 dbbe 9d1f e6be 5b47 86bf
00000140: 93a2 0dbf af15 50bf 6755 96be d429 83bf
00000150: b42f e4be 2bf0 8cbf 388a 97bf b814 9bbe
00000160: 791c ddbd a156 a5bf 53db 25bf 9285 1fbf
00000170: 978c 24bf d683 acbe 891c 94bf 8d76 b8bf
00000180: 9343 83bf c580 273d adb1 f9be a5a6 8dbf
00000190: a4ca 8ebe 8da3 75bf 65d8 d7be 95c9 02bf
000001a0: 9e8c 26bf c92d 7dbf 3db0 a1bf be8c bbbe
000001b0: 5fe6 15bf 347d b1bf ec3c 0fbe 83ab 92bf
000001c0: f593 32bd 766a 18bf b50a 0fbf 2c1d 57bf
000001d0: 7796 d5be 55c4 1fbf e6af d7be 91c4 98bf
000001e0: 756a 35be 3a22 bdbf dec2 dfbe 5d29 24bf
000001f0: ee30 22bf 3603 a2bf c02b 2dbf 3733 f3be
00000200: fc29 96be 33d4 45bf ea55 0dbf 82ee ddbe
00000210: 63bc 1bbf 5910 81bf fe32 88bf 0cfc 9fbf
00000220: 833c 1ebf b891 94be 8d86 29be 954b b5bf
00000230: dce5 02be 6445 04bf 75ea 7ebe 14bf c7be
00000240: 25e0 8bbf ca3f c3bf 9f73 7bbf 4920 44be
00000250: 356b 6abf 5724 2fbf 9ff4 f2be 1261 acbf
00000260: 123a 13bf c840 8dbe def4 8abf 0b49 99bf
00000270: 5553 5cbf d111 a5bd 5af3 58be e83d 28bf
00000280: ef1d c8be cd9f 0ebf 5e17 0abf b8f2 f5be
00000290: ed54 04bf 5b8e a5bf 5c4d 8cbf a2a0 e2be
000002a0: a7aa 85be 5d7d a5bf faf0 abbd baf0 1fbf
000002b0: 5626 f3be 4593 09bf aef0 64bf 6ae3 66bf
000002c0: 6157 acbf cc97 cfbc 2567 b7be ab69 a6bf
000002d0: 6b84 0d3d bed9 91bf 01e4 7cbd f1b4 81bf
000002e0: 8aa3 5cbf 4890 79bf 2b2a a8bf e207 97be
000002f0: 7422 503c 2d83 17bf 2bfd 09be 48e2 82bf
00000300: 1634 87be 0a41 15bf f038 92be 1f92 83bf
00000310: 8faa 8dbf 6f15 373d 5e96 82be 7b49 66bf
00000320: ca48 80bd e72c 04bf 7cef 41be c189 a0be
00000330: 1aab 62bf c14a 6ebf 3b87 02bf c064 92be
00000340: 51e2 4abf 2dfc 9cbf 39b9 a8be abb4 d9be
00000350: 24a6 d8be f703 85bf df74 13bf c572 4cbf
00000360: 68f8 1ebf 2113 12bf 7a66 b6be 1741 d6bf
00000370: 84fa 44be 6842 acbf b996 f6be 2168 40bf
00000380: b656 0dbf 426c 37bf dc72 5abf f0b1 19bf
00000390: 9e0c d3be 018f aabf 762a 2cbf 4929 aabf
000003a0: e6e1 47bf 6dbf 82bf 6e81 93bf d384 eabe
000003b0: 165a 1fbf ebf7 91be 74af 1dbf e55c 8ebf
000003c0: 649c c4bd ba1c b7bf 98c3 35bf fec4 41bf
000003d0: 8bbc 4fbf 0086 04bf 56ae b3bf 33bb 76be
000003e0: 76ef 5abe 3e24 8fbf 2d95 87be 810f aabf
000003f0: 1ae6 57be 9a87 42bf cad5 cfbe fbc2 1cbf
