Src_code/model/keypoint_classifier/model_versions/full_data_inacc/02/keypoint_classifier.tflite (tflite, 7296 bytes, 6 tensors)

dense_17/bias f4 [26]
00000000: 425a a2c1 9c14 97c1 b1e0 8ebf 26dc 8440
00000010: 1e61 60c0 b6c4 0c3f 6386 debf c81e d240
00000020: 6e2c 00c0 d528 9640 a5e8 9840 0036 2341
00000030: 1d21 6d41 82f4 5741 b711 28bf f295 a5bd
00000040: 2d2c aac0 02ec 163f 9001 023f 9b8e 72c0
00000050: 185c 5740 3550 0a40 4bd8 14c0 60ce 00c1
00000060: 30a8 07c1 634b af40
-20.294071 -18.885063 -1.116232 4.1518736 -3.5059276 0.5498766 -1.7384762 6.5662575
-2.0027118 4.6924844 4.778399 10.200684 14.820584 13.497194 -0.6565203 -0.080852404
-5.3178926 0.5895387 0.50783634 -3.789954 3.364996 2.1611454 -2.3257015 -8.0503845
-8.478561 5.4779525

dense_16/bias f4 [10]
00000000: 2a85 f940 0a01 95bc b0b1 d340 80d4 9fbf
00000010: 0b21 4f3f d94d d03e 1825 cb3f 0e00 4e40
00000020: e4af a240 7226 cdbd
7.7975054 -0.018188972 6.6154404 -1.2486725 0.80909795 0.40684393 1.5870695 3.2187533
5.083971 -0.100170985

dense_15/bias f4 [20]
00000000: 1c18 fbbf be6f 13be daad 82c0 ad30 51bf
00000010: de0d 41bf 7de9 76bf e81f 6ebf 7d5f 31c0
00000020: 4aab 18c0 5b74 08c0 72c5 7cbe 95df 16bf
00000030: cbea 3cbd b156 febf 3379 13bf 0fb0 8cbf
00000040: 044e 56c0 6441 3f3f d03b d0bf bd6a 16c0
-1.9616733 -0.14398095 -4.083722 -0.817149 -0.75411785 -0.96450025 -0.93017435 -2.7714531
-2.3854547 -2.1321018 -0.24684694 -0.5893491 -0.046122354 -1.9870206 -0.5760681 -1.0991229
-3.3485117 0.74709153 -1.6268253 -2.3502648

sequential_5/dense_15/MatMul f4 [20, 42]
00000000: 0cc9 d7bd 5c00 913e 0bfa 4d3f d4c3 7dbe
00000010: b42f 273f c540 eb3d 4368 cf3f 4dea b1bc
00000020: 7707 f13f 4fc3 e3bc f4fe 3a3f c07d 26be
00000030: cd1d eb3e 9065 e53c ba5a cd3e 9886 fe3d
00000040: 8f40 b73e 45ca bb3c c8c2 fb3e b6df 2cbe
00000050: 1126 c33e 3496 b23c 772d 6e3c 6c5e cb3c
00000060: 900d a8bd 20d6 893d 12ad 80be 9f31 0c3e
00000070: e33e 86be c13d 26bc b337 5cbf 7053 22bc
00000080: 6f6e 8abf 3b71 493d 613a 35bf bb21 8f3c
00000090: 3e67 38bf 0bd2 eb3c c7ea 8abf 1a97 383e
000000a0: 14ed 92bf 535c 983e 4e92 6cbe c875 9cbd
000000b0: 9338 673d 242a 2bbe 8ba2 b73d 44a2 fe3b
000000c0: 53c8 af3d a878 f03c 118a abbc b16c d83c
000000d0: 1915 43bd 08c3 823c a698 8abe 8324 2f3d
000000e0: 6c4f 01bf 4580 643d 10d1 35bf 53ba 3a3d
000000f0: 354e 1c3e ed1b d93c 1e52 6e3f 5ce3 ce3c
00000100: 8616 863f dca0 34bb 40ce 833f 8bce 3abd
00000110: 1a67 f23d 85c1 453b 19cf d93e a61b c63d
00000120: 5901 283f a01b 663d c4be 353f 58af bd3c
00000130: 6f30 1a3d 10ff aa3d e1d7 7a3e fbf3 1d3e
00000140: 4bf2 393f 771b e33d 56a4 953f 0f17 e43c
00000150: 2c75 823d 0002 983d af05 9ebc 61f2 6b3f
00000160: b5e1 613c 885d 673e 7c04 103d 120f af3d
00000170: 5961 8e3c ef35 b53d 5b71 503d ce19 b33d
00000180: 64b7 3fbc e25f cf3c e81c d53c c496 803d
00000190: 135c 48bc a7ea b7bb f64c c6bc d271 9e3d
000001a0: 298b 433d 54a7 c13d 3486 1c3d 44cc ad3d
000001b0: c685 7a3d 0c28 363e 9c68 94ba 004c 0fc1
000001c0: 1436 253d d193 a73d b77f 443b 601f a53e
000001d0: 7fbc 613c f884 8b3e 17ad 223d bbc3 f93e
000001e0: 9146 dd3c 8ef8 b13d f910 0dbc 563b 6a3e
000001f0: fdf3 77bc 5340 893e 78b4 cb3d 7054 933e
00000200: 0047 723c 95b7 2c3f 1e14 80bc dc0d 4b3e
00000210: d7b6 03bb e93d 493e a467 8fbc c8fe 1e3e
00000220: 236a c93c 115e f63d a26c b2bc 5fb0 ef3c
00000230: da6f 88bc 5a95 fb3c b824 04bc 09e8 81bc
00000240: 29e0 ea3c 2b9d f03d 766f 4bbc 1b97 9a3c
00000250: ea09 56bd d20d 0abd 1bf9 c7bc 8ed6 88bd
00000260: 14fc 623d 4fbe d03d 6394 dbbc 5cea 2b3d
00000270: 032b 0a3c 4e97 c63d 360d 1b3d 65c8 b5c0
00000280: b265 403c 9586 f33d 1e6b 80bd 3422 863c
00000290: cab2 13bd e851 41bd 9f9e d53c 2090 49be
000002a0: ce5d 8ebd f6cf 8abe f5bc 39be 08de e93e
000002b0: 75e0 0cbe f989 133e 68ef cbbe db86 da3d
000002c0: e955 68bf f6c9 7d3c 32fd 7d3e 75d0 dc3d
000002d0: 4331 26be 095c cbbc bffd d4be b14a 25be
000002e0: ceba 0cbf f97c 4fbe c13a 123f ac8f de3d
000002f0: d43b 8bbd 4aa7 dd3c 6576 87be ff49 c0b9
00000300: 142e b7be 07d1 dd3c 6aeb b33e c085 ab3d
00000310: 8fa9 35be d3e9 c03c 4799 0ebf 25cf 82bb
00000320: 4e5a 60bf 6b58 b7bc 74fc 17bd 3c3a b43d
00000330: ef7e 79be b35f 1ebc 270b 00bf 5745 8f3c
00000340: e866 1ebf 2562 9a3c c0b8 a2bb 34ba 91be
00000350: 3020 753e c564 05bf 79e2 163e 669e f4bd
00000360: 8cdd 893e 1c73 6abc 685b d03e 9abe 113d
00000370: 8542 63be 80e9 eebd 4260 f6be 1fdd 163d
00000380: 64db edbe 491e 8f3d a81e ccbe 1710 f93c
00000390: c0a6 00bf 7171 dfbd b07f b3be cb38 2d3c
000003a0: 7155 10bd 1951 00bc 5f70 3b3e 1a77 7fb9
000003b0: c57e d1be 0a91 26be 6204 03bf 7a58 a93d
000003c0: 38c1 bfbe 9a2b b4bc 547f 4d3e bd8d a2bc
000003d0: ecb8 52be 29c8 b5bd b23f fdbe b971 9e3d
000003e0: c0e4 31bf 6247 3dbd 01f6 32bf d6b4 19be
000003f0: 57d2 42be e430 88be d524 45be 6cae a2be
-0.105363935 0.28320587 0.8045966 -0.24781734 0.65307164 0.11486963 1.6203693 -0.021718169
1.8830403 -0.027803091 0.7304528 -0.16258907 0.45921174 0.02800253 0.4010828 0.124280155
0.35791442 0.022923598 0.49172044 -0.16882214 0.3811498 0.021800138 0.014537207 0.024825297
-0.08205712 0.06730294 -0.25132042 0.13690804 -0.26219854 -0.010146559 -0.8602249 -0.009907588
-1.0814952 0.04918025 -0.70792204 0.017472139 -0.72032535 0.02878668 -1.0852898 0.1802639
-1.14786 0.29757938 -0.23102686 -0.076396525 0.056450438 -0.16715294 0.089665495 0.0077708084
0.08583131 0.029354408 -0.020939859 0.026419016 -0.047627542 0.015962139 -0.27069587 0.04275943
-0.50511813 0.05578639 -0.7102213 0.04558785 0.15264209 0.026502574 0.9309405 0.025254898
1.0475624 -0.00275617 1.0297318 -0.04560713 0.11836071 0.003017516 0.42540815 0.09673242
0.65627056 0.05617869 0.7099421 0.0231549 0.037643846 0.083494306 0.24496414 0.15425102
0.72635335 0.11089223 1.1690776 0.027843026 0.06370005 0.074222565 -0.01928982 0.92166716
0.013786723 0.22594273 0.035160527 0.08547796 0.017380403 0.08848178 0.050889354 0.08745156
-0.011701439 0.025314275 0.02601476 0.06278756 -0.012228983 -0.0056126895 -0.02420662 0.07736553
0.047740135 0.094557434 0.038213924 0.08486226 0.061162733 0.17788714 -0.001132268 -8.956055
0.040334776 0.081824906 0.002998335 0.322505 0.013777851 0.27249885 0.039715853 0.48782143
0.027011188 0.08689986 -0.008610004 0.22874197 -0.015133855 0.26806888 0.09946531 0.28775358
0.0147874355 0.67467624 -0.015634593 0.19829506 -0.0020097995 0.19652523 -0.017505474 0.15526879
0.024586743 0.120296605 -0.021780316 0.029258905 -0.016654897 0.030710865 -0.008065395 -0.015857713
0.028671341 0.117487274 -0.012416711 0.01887088 -0.05225555 -0.033704586 -0.024410775 -0.06681548
0.05541618 0.101925485 -0.026804155 0.04197155 0.008433106 0.09696828 0.037854396 -5.680712
0.011742996 0.11890904 -0.06270431 0.016373731 -0.03605918 -0.047197253 0.026076613 -0.19683886
-0.069514856 -0.27111787 -0.18138488 0.4567721 -0.13757499 0.14408101 -0.3983109 0.10670253
-0.9075609 0.015490046 0.24803618 0.107819475 -0.1622973 -0.02482416 -0.41599843 -0.16141774
-0.5497254 -0.20262517 0.571209 0.10867247 -0.06798521 0.027057309 -0.26457515 -0.00036676225
-0.35777342 0.027077211 0.35140544 0.0837512 -0.17740463 0.023548996 -0.5570263 -0.0039919787
-0.87637794 -0.022381028 -0.037105992 0.0880017 -0.24364828 -0.009666371 -0.5001702 0.017489119
-0.6187577 0.018845627 -0.0049658716 -0.28462374 0.2393806 -0.5210689 0.1473483 -0.119442746
0.2692684 -0.014309671 0.40694737 0.035582162 -0.22193344 -0.1166563 -0.48120314 0.03683197
-0.46456444 0.06988198 -0.3986714 0.03040318 -0.5025444 -0.10910309 -0.35058355 0.0105726225
-0.035237733 -0.007831835 0.18304585 -0.00024363064 -0.4091703 -0.16266266 -0.5117856 0.08268829
-0.37452102 -0.021993447 0.20068103 -0.019842977 -0.20578355 -0.08876068 -0.49462658 0.077365346
-0.6948967 -0.046210654 -0.6990662 -0.1501039 -0.19025551 -0.265998 -0.19252332 -0.31773698

sequential_5/dense_16/MatMul f4 [10, 20]
00000000: 85d4 babb d369 efbc 5822 a53c 17d0 683a
00000010: ee71 bd3c 8685 fa3d ee90 c43d 52b8 993d
00000020: ee14 ef3c a0bb ba3a 5368 11bb 2f31 41c0
00000030: cd8d a73d 5671 4dbd c43e 463c 8286 94bc
00000040: a5c8 42bb db63 6fbe 89d3 013c 6b14 623d
00000050: 4dd9 a03c 1b82 b83d 8119 2040 998f 433e
00000060: 8633 2abc 91fc 29bc 96cd 0ebc e77b 843f
00000070: 293a 3f3f 6558 dfbb 3596 c23d 03e2 623e
00000080: 4894 d33e e959 34bc 8d9a 823b bd7c 2f3f
00000090: 5b5b 0b40 ab69 1a3b 5cd8 663f 72cb 7f3f
000000a0: b492 d1be 7757 7dbe 7bd6 223e ec45 0d3f
000000b0: 9859 763d 8638 a3be 06db a9be 4190 513f
000000c0: 5358 eb3f 5e47 c4be c91e 7bbe 9505 26bf
000000d0: 915c 6f3d d567 863f e4fa 0f3d 32cc e23f
000000e0: 404c 033e 1dbb f9bd 3556 533f 5fcb 063f
000000f0: a065 febc 1a9e df3c ccf0 833f d856 733d
00000100: 53a8 00be a9f8 83bc b456 853c aeb7 5f3f
00000110: 4fcf ee3f de1e eebc 9bac 7a3c cf21 973c
00000120: b317 0b3d cd45 553b e447 823d ff20 e43f
00000130: 1a8d 543f 59af eb3e 4f3e 833d fc9f 8d3d
00000140: 68e3 7cbc 97a9 f2bc 1ce6 223e 53a4 1e3d
00000150: 8c87 28bd 2efc f93c a918 923c b598 6a3f
00000160: 7ec1 3240 8ee2 533c a20d e2bc 75f7 a93f
00000170: 6ff1 e4be 6f85 423f 0967 ebbc 55fe 2b40
00000180: f87b 893d 2dcd 343c a245 753f 0fc8 ef3e
00000190: 0c2d 5ebd 0d08 3c3c a4e8 a2be 5a39 ae3f
000001a0: a8e6 e8bc 4616 88bd fce8 5bbd 796e 5a3f
000001b0: f742 0240 22c0 bbbd 38c0 04bb b26b 793c
000001c0: 1643 5b3e 9209 633d bf49 4cbc 4f73 fb3f
000001d0: 7b96 8cbe 110c 5c3e 92cc 963f abf7 2f3f
000001e0: 6c54 0f40 6563 a7bf 7ebe eb3e a8fb 083d
000001f0: 6c9c 4c3e 6c62 503e 619d 613e 4f45 6bbd
00000200: 8b8f 043b 953d 1040 4df8 a8bf a668 dbbc
00000210: 16fe 29be dfc8 08bc a7da 743e 7607 453c
00000220: 7350 463e c0a8 7d3e 19d8 a6bd 64c2 8b3d
00000230: 7b30 babd 25ea e1bd 4e36 a63e 70c4 4cbd
00000240: d042 07c0 0a87 23be 169f 48be 8c1c 403e
00000250: f6ad 693e f439 1dbd 49f1 98bc f932 f6bc
00000260: 2d3f 33bd 5a52 20bf 3a5f 0ac0 8ca5 2a3e
00000270: 954e 4e3e 21b2 38c0 80dd 173e 5272 923d
00000280: 623b e03c dcda 81bd 551a 873d 3c43 afc0
00000290: c2b3 0a3e 83fd cd3d 8310 493d 91d5 5c3d
000002a0: 8f39 473d e85f 873d d600 cabc a587 4e3d
000002b0: 95a2 163d e56d 443e c236 003e eaf4 883d
000002c0: 2eca 093d b776 97be 6d82 033e 8a1b ca3d
000002d0: 1eb8 83bd f12e 603f 9e11 26bc 9582 9b3d
000002e0: aac3 663e b5fe 913f e8c0 8b3f 1b15 063f
000002f0: 1482 cd3f 6715 cfbd 8eb8 663f 11cb b43d
00000300: 1fe7 5dbe 90ec c3bb 0ad1 833e d189 c43f
00000310: 4e15 a93b 67f1 713e bbd2 a03f 683e 293f
-0.005701604 -0.029225266 0.020157978 0.00088811055 0.023125615 0.12232499 0.09597956 0.075058594
0.029184785 0.001424659 -0.0022187426 -3.018627 0.08181343 -0.050156914 0.012099925 -0.018130545
-0.0029721644 -0.23377936 0.007923969 0.055195253 0.019634867 0.09009191 2.5015566 0.19097747
-0.010388261 -0.010375158 -0.008716008 1.0350312 0.7469812 -0.0068159574 0.09501306 0.22156529
0.41324067 -0.011007764 0.003985709 0.6854971 2.177451 0.0023561518 0.9017389 0.9991981
-0.40932238 -0.24740396 0.1590213 0.5518482 0.060144037 -0.3187906 -0.33174914 0.8186074
1.838633 -0.383357 -0.24523462 -0.6485227 0.058437888 1.0500437 0.035151377 1.7718565
0.12822056 -0.12193892 0.82553416 0.5265407 -0.031054318 0.027297068 1.030786 0.059408993
-0.1256421 -0.016109781 0.016276695 0.8738965 1.8657016 -0.029067453 0.015299941 0.018448738
0.03395815 0.0032542825 0.06361368 1.782257 0.83027804 0.46032217 0.06408369 0.0691528
-0.015435077 -0.029621882 0.15908092 0.03873093 -0.041144893 0.030515756 0.017834025 0.9163926
2.7930598 0.012932433 -0.027594391 1.3278643 -0.4471545 0.75984854 -0.028735654 2.6873982
0.06713098 0.011035246 0.95809376 0.4683232 -0.05424218 0.011476529 -0.31818116 1.3611252
-0.028430298 -0.06644873 -0.053688988 0.8532482 2.0353372 -0.09167506 -0.0020256173 0.0152234305
0.2141231 0.05542905 -0.012468754 1.9644564 -0.27458557 0.21488978 1.178118 0.68737286
2.2395277 -1.3077208 0.46043772 0.033443123 0.19981545 0.20350045 0.22032692 -0.057439145
0.002022716 2.2537587 -1.3200775 -0.026783299 -0.16600832 -0.008348673 0.23911534 0.012025705
0.19366626 0.24771404 -0.08146686 0.068241864 -0.09091278 -0.11030988 0.32463306 -0.049992025
-2.113453 -0.15969482 -0.19591936 0.1876089 0.22820267 -0.038385347 -0.018669741 -0.030053603
-0.04376142 -0.6262566 -2.1620622 0.16664714 0.20147164 -2.8858721 0.1483059 0.07150711
0.027372066 -0.06340572 0.06596819 -5.4769573 0.13545135 0.10058119 0.049088012 0.05391461
0.048638877 0.066100895 -0.024658602 0.05042233 0.036776144 0.19182546 0.12520888 0.06687339
0.03364008 -0.2958276 0.12842722 0.09868534 -0.06431602 0.87571627 -0.010136036 0.07593266
0.22535577 1.1405855 1.0918245 0.52375954 1.6055322 -0.10111504 0.9012536 0.08827794
-0.21670197 -0.005979128 0.25745422 1.5354558 0.0051600104 0.23627244 1.256431 0.6611085

sequential_5/dense_17/MatMul f4 [26, 10]
00000000: 4832 af40 b9ad 4d3f b7b8 6ac0 5542 16c0
00000010: 3cf5 5140 00a2 febe 4059 8bbe 60a3 83bf
00000020: 1663 77bf d767 d8bf af39 15c0 d168 f9be
00000030: 29dc c03f 4333 a6bf 9b5e 07c0 7b73 b33f
00000040: e5ae ebbe 283b 833e 404b 7040 0089 79bf
00000050: 02bf 3ac0 dab4 b3be ca21 cd3f cc7b b13e
00000060: 1d10 7fc0 1ec5 353d b3c1 b83e 1818 f2be
00000070: 57d2 b73f 2949 f53f f359 82bf 6f44 be3e
00000080: 4dc3 e23e 95a5 f0bf 60a0 ddbe 3cce a8be
00000090: cafe e9bf 9adc c4bf b460 d13d 902f 8abe
000000a0: 4380 54bf 130c a03e 181a e0be 7579 b5bf
000000b0: bbea 04bf 8ff3 ea3e 3226 833c 4078 1a3f
000000c0: 0d80 123f 8769 38bf cbbd 74bd 3b7b 07be
000000d0: e3a2 81c0 ee52 433e 4709 bcbf 21a2 5a40
000000e0: 7888 88be 82b4 e0bd 8acc 6c40 89b2 c5bd
000000f0: 5307 ad3f 43fb 24c1 101f e9bf e694 3ec0
00000100: 7f59 3a40 c138 333f a4e0 8fbf 90e1 cebf
00000110: edc8 db3d 077f 213f 9550 3dbf 995f 10c0
00000120: 659e e73e 8e5c 463d 8187 c63e c791 41c0
00000130: 6d6a e2be d761 a9bf 731b a0bf fc14 9b3f
00000140: 4ca8 61be 07df 103f 7735 b4be 2bc6 44c0
00000150: c71f 973e 351d 31bf 4d82 39be faae 8d3e
00000160: bbdf e2be 1b6c f53d 01c3 59be 8d7f f73d
00000170: d791 5dbf b668 06c0 a723 903d 34e4 37bf
00000180: 0156 3f3d 9ae5 93bf 8091 1abf 22c6 883f
00000190: d198 0b3f 1307 b1c0 2946 9fbe 386e e63f
000001a0: 859a 1940 7511 13c0 0810 8ac0 8745 0e3e
000001b0: 0613 bbbf eefe 33c0 6d01 e6bf b838 663e
000001c0: 08c2 ba3f ef31 6bc0 20a1 91bf 201c 43c0
000001d0: bb85 0d3f beb6 c3bf 4375 9abf cdbf 3bc0
000001e0: 77a2 a43e fcc0 e63c ccb2 62c0 bb0f 273f
000001f0: 1d93 4abf 5889 af3f ae36 2cbe 6233 3abf
00000200: 0185 e53e aae8 a6be 480d 02be ae54 793d
00000210: e435 55c0 5058 0e3f 4b96 b8bf ee4c d03f
00000220: 7b23 ebbd cc20 4bbf daf6 893f 0d14 0ebc
00000230: 7668 3f3f a012 483f 0d9a 30c0 55ea 97bf
00000240: e6b3 7dbc 8ed6 e43f 611a 55bf 65c6 b8bf
00000250: 3050 bc3f 2f76 32bf 3e53 23c0 a984 fcbf
00000260: c75e 2540 c88a 1240 c81e 84c0 5556 31c0
00000270: ae13 923e 065c cdbd 850c 8b3e 3c9c 0b40
00000280: 4244 50bf c1bd f5bf 889f 0140 9d6d 4940
00000290: babc 0dc1 01d4 16c0 95b6 f73e 7d0d 663d
000002a0: 803b 4dbe 265f 0140 5202 2dbf 528f 12c0
000002b0: d400 203f 1948 d63f b893 533f 7f1c 7cbf
000002c0: 4913 bbbf c0e1 8b3e 47da 39bf 0057 87c0
000002d0: b864 933f 5887 c73e 3c4f 0cc0 6c98 a3bf
000002e0: 16d3 593f 5629 093e 8033 51bd c69c 9cbe
000002f0: 7335 c5be 223d 4bbf 00bd 3d3f 05bc 3c3f
00000300: 8464 41bf e622 1ec0 9fb7 993f bcc0 28bf
00000310: a5c8 8b3e 0563 bcbf 6cec f4be 458e bcbf
00000320: e47b b4bf 3c96 2fc0 f97e b43f e5f8 d73f
00000330: 6e87 c23d d881 01c0 ae93 f0bf 58d1 173f
00000340: ec05 83bf 585a 18c0 f738 30c0 931f c0c0
00000350: b4fc 3c40 f736 e33f 2ed5 91bf 0abe e7bf
00000360: 047d 65c0 5b90 e53f 70b7 5ebf cc88 85bf
00000370: a31d ffbf 26ab 82bf eb95 b43f f43a 833e
00000380: b219 aabf abf9 153f f18f 5fc0 e000 203e
00000390: 37dc c33f e1c4 23c0 b9d7 a5be 33ba cb3d
000003a0: b324 743f 3288 23c0 3da9 7c3f ebc2 09c0
000003b0: 5565 1b3e 729b 263f 07f4 78bf ba7e 23bf
000003c0: c070 0c40 029e 493f 5a3c 1ec0 bc2a 4dc0
000003d0: a61a c03f ed20 29bf 2c23 df3d 26fd 9f3e
000003e0: 9f68 63bf ee42 033f 7e12 65be e946 bc3e
000003f0: f6a4 0abe efda 10c0 d092 d73e a83f 14c0
5.474888 0.80343205 -3.667524 -2.3477986 3.280593 -0.4973297 -0.2721653 -1.0284233
-0.9663557 -1.690669 -2.3316457 -0.4871278 1.5067188 -1.2984394 -2.1151493 1.4019617
-0.4603187 0.2563107 3.754593 -0.9747467 -2.9179082 -0.35098916 1.6025937 0.34664762
-3.9853585 0.04437744 0.3608528 -0.47284007 1.4361066 1.9162952 -1.01837 0.37161586
0.44289628 -1.8800532 -0.4328642 -0.32969844 -1.828088 -1.5379822 0.10223523 -0.26989412
-0.8300821 0.31259212 -0.43769908 -1.4177691 -0.5192067 0.45888945 0.016009424 0.60339737
0.5722664 -0.7203602 -0.059751313 -0.13230602 -4.0511336 0.19074604 -1.4690331 3.4161456
-0.26666617 -0.10971929 3.699984 -0.096531935 1.351786 -10.311343 -1.8212605 -2.977838
2.9117124 0.70008475 -1.124043 -1.6162586 0.10731683 0.63084453 -0.73951083 -2.2558348
0.45238033 0.04842811 0.38775256 -3.0245225 -0.4422182 -1.3232983 -1.2508377 1.2115779
-0.22036856 0.5659031 -0.3519704 -3.0745952 0.29516432 -0.6918519 -0.18116112 0.2767256
-0.44311318 0.1198351 -0.21265794 0.12084875 -0.8655066 -2.100141 0.0703805 -0.71832585
0.04671288 -1.1554444 -0.60378265 1.0685465 0.54530054 -5.5321136 -0.31108215 1.8002386
2.4000561 -2.2979405 -4.314457 0.1389371 -1.461518 -2.8124347 -1.7969185 0.22482574
1.4590464 -3.6749227 -1.1377296 -3.0485916 0.5528218 -1.5290143 -1.2067035 -2.9335816
0.321552 0.028168194 -3.542163 0.6525838 -0.7913073 1.3713789 -0.16817734 -0.72734654
0.44828036 -0.32599384 -0.12700379 0.060871772 -3.3314142 0.55603504 -1.4420866 1.6273477
-0.11481377 -0.7934692 1.0778458 -0.008671773 0.7476877 0.7815342 -2.7594025 -1.1868387
-0.015484786 1.7877977 -0.83243376 -1.4435545 1.4711971 -0.69711584 -2.5519557 -1.9727985
2.5839097 2.2897205 -4.1287575 -2.7708943 0.2853064 -0.10027318 0.2715799 2.1814108
-0.81354153 -1.9198533 2.025362 3.1473153 -8.858576 -2.3566897 0.48381487 0.056165207
-0.20042229 2.0214324 -0.67581666 -2.2899976 0.62501264 1.6740752 0.82647276 -0.9848098
-1.461526 0.2732067 -0.7259869 -4.22937 1.1515112 0.38970447 -2.192336 -1.278089
0.85087717 0.13394675 -0.051074505 -0.3058836 -0.3851734 -0.79390156 0.74116516 0.73724395
-0.75544 -2.47088 1.2009162 -0.6591909 0.27301517 -1.4717718 -0.47836626 -1.4730917
-1.4100308 -2.7435446 1.4101249 1.6872832 0.094984874 -2.02355 -1.8795068 0.5930381
-1.0236182 -2.3805141 -2.7534769 -6.0038543 2.9529238 1.7751149 -1.1393182 -1.810487
-3.5857553 1.7934679 -0.86998653 -1.0432372 -1.993092 -1.020848 1.4108251 0.25630915
-1.3289092 0.5858409 -3.4931605 0.15625334 1.5301579 -2.5588915 -0.32391146 0.09947624
0.953685 -2.5551877 0.9869574 -2.1525218 0.15175374 0.6508094 -0.97247356 -0.63865244
2.1943817 0.78756726 -2.4724336 -3.2057333 1.5008132 -0.66065866 0.108953804 0.31247824
-0.88831514 0.51274 -0.22370335 0.3677285 -0.1353949 -2.2633626 0.42104197 -2.3163853
