Src_code/model/keypoint_classifier/model_versions/full_data_inacc/06/keypoint_classifier_06.tflite (tflite, 9432 bytes, 8 tensors)

dense_16/bias f4 [26]
00000000: 86d5 993f b9ff 2c40 32a6 a93f fa53 f53f
00000010: d703 0dc0 9f1a 5f40 bb97 a63f a731 85bf
00000020: 1797 1040 ea46 8540 6a01 fcbf b973 6dc0
00000030: 3b01 67bf 404f f2bf b818 bf3f 21b0 003d
00000040: 9d13 ec3f e539 12c0 89c6 4ac0 5954 863f
00000050: 5ed2 88c0 76c5 c43f 53f1 5040 414c 19be
00000060: dc66 cdbe ea62 03bf
1.2018287 2.703108 1.3253844 1.9166253 -2.2033594 3.4859998 1.3015054 -1.0405778
2.2592218 4.1649065 -1.9687932 -3.7101882 -0.9023625 -1.8930435 1.4929419 0.03141797
1.8443485 -2.2847836 -3.1683676 1.0494491 -4.2756796 1.537276 3.2647293 -0.14970495
-0.40117538 -0.51322806

dense_15/bias f4 [15]
00000000: ed02 1340 6fc0 a340 88e8 2d40 bcda 503f
00000010: 2b2b 9140 0e04 f7bf bb6d f33e c778 6540
00000020: fd42 0b3f 6fa4 a13f 8bc7 7f40 cc64 6440
00000030: 9ae3 e73f 91c3 6640 3a97 7240
2.2970536 5.1172404 2.7173176 0.8158376 4.5365195 -1.9298112 0.47544655 3.5854967
0.5439909 1.2628306 3.9965541 3.5686522 1.8116333 3.6056864 3.7904801

dense_14/bias f4 [30]
00000000: 7aa8 013e f4cd 68bd 9995 f43b c0cd 393e
00000010: 2825 18bd ee90 ecbd b488 f7bd a09e 69bc
00000020: fc5d 87bd 906c e9ba edf1 633b 9eaf 23bd
00000030: 92fb 3e3d 483e 8dbc 8123 8d3d 6239 28be
00000040: bab8 b23b e38c 97be 5178 96be 8461 4e3c
00000050: 8b1e 733c 79bb a23c 7565 373f 5941 9dbd
00000060: 8100 103f 9bfc 603b 2c6f d83c 244d 9cbd
00000070: 39a7 0b3d 4095 933d
0.12661925 -0.056837037 0.0074641225 0.18144894 -0.03714481 -0.11551081 -0.12086621 -0.014259011
-0.06609723 -0.0017808843 0.003478165 -0.039962403 0.046626635 -0.017241612 0.068915375 -0.1642814
0.00545415 -0.29599676 -0.2938867 0.012596492 0.014838825 0.019864785 0.71639186 -0.0767848
0.5625077 0.0034330252 0.026420198 -0.07631901 0.034095023 0.072062016

dense_13/bias f4 [45]
00000000: be9d bdbf f118 13c0 5a78 ddbf 9781 e8be
00000010: 5cd1 1ebf 4b2c 36bf e2ed 06c0 81c9 d8bf
00000020: 4879 02c0 3d35 10c0 9e64 1cc0 412f efbf
00000030: 8578 e4bf d269 09c0 6efd a3bf 818c e2bf
00000040: c658 f0bf e3fb 0ac0 a334 babf 5759 d7be
00000050: 45e5 36be adce 3fbf 7aa2 d1bf 5947 d73f
00000060: 37de a8bf 3929 42bf adb4 32bf 7f42 2c3d
00000070: 069c ddbf 48df aabf d81d 10c0 fcc7 fdbf
00000080: 8408 f2bf 9909 e8bf c2d3 d4bf b43f b9bf
00000090: 2c1f 1ac0 0fba d3bf 22f6 c8bf 85d8 a2bf
000000a0: 7d6c bebf c6d8 c0bf 37f7 c2bf 38d6 07bf
000000b0: 1909 6ebf
-1.4813764 -2.2983973 -1.7302353 -0.4541137 -0.6203821 -0.71161336 -2.1082692 -1.6936494
-2.0386524 -2.2532494 -2.4436412 -1.8686296 -1.784928 -2.1470838 -1.2811716 -1.7699128
-1.8777092 -2.171624 -1.4547313 -0.42060348 -0.17860897 -0.7492474 -1.6377709 1.6818649
-1.3192815 -0.7584415 -0.6980694 0.042055603 -1.731324 -1.334939 -2.2518215 -1.9826655
-1.8908849 -1.8127929 -1.6627123 -1.4472566 -2.4081526 -1.6541156 -1.5700114 -1.2722327
-1.4876858 -1.5066154 -1.5231694 -0.53061247 -0.9298263

sequential_4/dense_13/MatMul i1 [45, 42] scale=0.0369435 zero_point=0
00000000: fe00 be0c 0604 edff e301 e8fd f4ff f7ff
00000010: f900 ea03 f8ff 0101 05ff 06fe 0201 0b01
00000020: 11fe 1c02 0e00 0d00 09fe 05fa fdfc fe02
00000030: 7500 f501 f802 fb01 fd00 feff f500 f901
00000040: fc00 00ff fc01 f801 eeff f6f7 0200 fd02
00000050: f802 f4fe 0605 2505 1508 1504 0b01 e802
00000060: f302 ffff 05fd d802 f002 06fe 12fe d901
00000070: f800 23fe 35ff f300 fefd 0ffe 3bff 0403
00000080: 010e 0204 0b01 b700 0801 0100 fc00 fa01
00000090: 1dff 1400 0e00 0fff 12ff 03ff f1ff 9e02
000000a0: 06fe 0200 01fe 09ff 0201 fdfd fe00 ee00
000000b0: f101 0200 0701 7001 fc00 0300 ed00 dd00
000000c0: da00 0001 ff00 f401 de02 0002 0001 fd03
000000d0: fc02 02fc feff 0101 0600 0e01 0201 fd01
000000e0: 8e00 0000 1701 1f00 2300 20ff 0901 0901
000000f0: 0f01 0d01 0201 0202 ff03 0202 fa07 12da
-0.073887 0.0 -2.438271 0.443322 0.221661 0.147774 -0.70192647 -0.0369435
-1.0713614 0.0369435 -0.886644 -0.1108305 -0.443322 -0.0369435 -0.3324915 -0.0369435
-0.2586045 0.0 -0.81275696 0.1108305 -0.295548 -0.0369435 0.0369435 0.0369435
0.18471749 -0.0369435 0.221661 -0.073887 0.073887 0.0369435 0.40637848 0.0369435
0.6280395 -0.073887 1.034418 0.073887 0.517209 0.0 0.4802655 0.0
0.3324915 -0.073887 0.18471749 -0.221661 -0.1108305 -0.147774 -0.073887 0.073887
4.3223896 0.0 -0.40637848 0.0369435 -0.295548 0.073887 -0.18471749 0.0369435
-0.1108305 0.0 -0.073887 -0.0369435 -0.40637848 0.0 -0.2586045 0.0369435
-0.147774 0.0 0.0 -0.0369435 -0.147774 0.0369435 -0.295548 0.0369435
-0.664983 -0.0369435 -0.36943498 -0.3324915 0.073887 0.0 -0.1108305 0.073887
-0.295548 0.073887 -0.443322 -0.073887 0.221661 0.18471749 1.3669095 0.18471749
0.77581346 0.295548 0.77581346 0.147774 0.40637848 0.0369435 -0.886644 0.073887
-0.4802655 0.073887 -0.0369435 -0.0369435 0.18471749 -0.1108305 -1.4777399 0.073887
-0.591096 0.073887 0.221661 -0.073887 0.664983 -0.073887 -1.4407965 0.0369435
-0.295548 0.0 1.2930225 -0.073887 1.9580054 -0.0369435 -0.4802655 0.0
-0.073887 -0.1108305 0.5541525 -0.073887 2.1796665 -0.0369435 0.147774 0.1108305
0.0369435 0.517209 0.073887 0.147774 0.40637848 0.0369435 -2.6968753 0.0
0.295548 0.0369435 0.0369435 0.0 -0.147774 0.0 -0.221661 0.0369435
1.0713614 -0.0369435 0.73886997 0.0 0.517209 0.0 0.5541525 -0.0369435
0.664983 -0.0369435 0.1108305 -0.0369435 -0.5541525 -0.0369435 -3.620463 0.073887
0.221661 -0.073887 0.073887 0.0 0.0369435 -0.073887 0.3324915 -0.0369435
0.073887 0.0369435 -0.1108305 -0.1108305 -0.073887 0.0 -0.664983 0.0
-0.5541525 0.0369435 0.073887 0.0 0.2586045 0.0369435 4.137672 0.0369435
-0.147774 0.0 0.1108305 0.0 -0.70192647 0.0 -1.2930225 0.0
-1.4038529 0.0 0.0 0.0369435 -0.0369435 0.0 -0.443322 0.0369435
-1.256079 0.073887 0.0 0.073887 0.0 0.0369435 -0.1108305 0.1108305
-0.147774 0.073887 0.073887 -0.147774 -0.073887 -0.0369435 0.0369435 0.0369435
0.221661 0.0 0.517209 0.0369435 0.073887 0.0369435 -0.1108305 0.0369435
-4.211559 0.0 0.0 0.0 0.84970045 0.0369435 1.1452484 0.0
1.2930225 0.0 1.182192 -0.0369435 0.3324915 0.0369435 0.3324915 0.0369435
0.5541525 0.0369435 0.4802655 0.0369435 0.073887 0.0369435 0.073887 0.073887
-0.0369435 0.1108305 0.073887 0.073887 -0.221661 0.2586045 0.664983 -1.4038529

sequential_4/dense_14/MatMul i1 [30, 45] scale=0.17990457 zero_point=0
00000000: f3e3 fcff 0000 ff00 03e6 01e6 00ec 0001
00000010: 0000 a200 fe01 00ff 0200 00fd 0000 f301
00000020: c501 cc01 8aff 0000 f4f7 cfff 0201 0eff
00000030: 0100 00ff 0800 0bbb 0102 ff00 04dd ff02
00000040: 00d8 0001 cf00 0000 b800 f3fd 0200 04f4
00000050: 0000 ff09 fffd fe00 0200 0101 0000 0000
00000060: 0700 ff00 0101 0004 0101 0008 01d8 01e2
00000070: 0101 fbff 0101 0000 03ff 0105 0d00 0100
00000080: ff02 0101 0000 fe00 01fb 00ff 00f7 0104
00000090: 0200 0000 d500 ff00 f701 01ff 0100 ff02
000000a0: 00ff fd00 00f7 00b7 00de 0181 0001 fefc
000000b0: fda9 0102 ff06 ff00 0201 0101 0007 01ff
000000c0: 08fe 0800 0000 fe00 0000 0900 ff04 0300
000000d0: 0000 fc0d 0000 fe00 feff ff03 fefe 0000
000000e0: 0000 0100 0000 0003 0000 0000 00ff 03ff
000000f0: 0900 0301 ff01 ffff 00fe 0000 ff00 0002
-2.3387594 -5.217232 -0.71961826 -0.17990457 0.0 0.0 -0.17990457 0.0
0.5397137 -4.677519 0.17990457 -4.677519 0.0 -3.5980914 0.0 0.17990457
0.0 0.0 -16.91103 0.0 -0.35980913 0.17990457 0.0 -0.17990457
0.35980913 0.0 0.0 -0.5397137 0.0 0.0 -2.3387594 0.17990457
-10.614369 0.17990457 -9.355038 0.17990457 -21.228739 -0.17990457 0.0 0.0
-2.1588547 -1.6191411 -8.815324 -0.17990457 0.35980913 0.17990457 2.518664 -0.17990457
0.17990457 0.0 0.0 -0.17990457 1.4392365 0.0 1.9789503 -12.413415
0.17990457 0.35980913 -0.17990457 0.0 0.71961826 -6.29666 -0.17990457 0.35980913
0.0 -7.1961827 0.0 0.17990457 -8.815324 0.0 0.0 0.0
-12.953129 0.0 -2.3387594 -0.5397137 0.35980913 0.0 0.71961826 -2.1588547
0.0 0.0 -0.17990457 1.6191411 -0.17990457 -0.5397137 -0.35980913 0.0
0.35980913 0.0 0.17990457 0.17990457 0.0 0.0 0.0 0.0
1.259332 0.0 -0.17990457 0.0 0.17990457 0.17990457 0.0 0.71961826
0.17990457 0.17990457 0.0 1.4392365 0.17990457 -7.1961827 0.17990457 -5.397137
0.17990457 0.17990457 -0.89952284 -0.17990457 0.17990457 0.17990457 0.0 0.0
0.5397137 -0.17990457 0.17990457 0.89952284 2.3387594 0.0 0.17990457 0.0
-0.17990457 0.35980913 0.17990457 0.17990457 0.0 0.0 -0.35980913 0.0
0.17990457 -0.89952284 0.0 -0.17990457 0.0 -1.6191411 0.17990457 0.71961826
0.35980913 0.0 0.0 0.0 -7.735896 0.0 -0.17990457 0.0
-1.6191411 0.17990457 0.17990457 -0.17990457 0.17990457 0.0 -0.17990457 0.35980913
0.0 -0.17990457 -0.5397137 0.0 0.0 -1.6191411 0.0 -13.133033
0.0 -6.116755 0.17990457 -22.84788 0.0 0.17990457 -0.35980913 -0.71961826
-0.5397137 -15.651697 0.17990457 0.35980913 -0.17990457 1.0794274 -0.17990457 0.0
0.35980913 0.17990457 0.17990457 0.17990457 0.0 1.259332 0.17990457 -0.17990457
1.4392365 -0.35980913 1.4392365 0.0 0.0 0.0 -0.35980913 0.0
0.0 0.0 1.6191411 0.0 -0.17990457 0.71961826 0.5397137 0.0
0.0 0.0 -0.71961826 2.3387594 0.0 0.0 -0.35980913 0.0
-0.35980913 -0.17990457 -0.17990457 0.5397137 -0.35980913 -0.35980913 0.0 0.0
0.0 0.0 0.17990457 0.0 0.0 0.0 0.0 0.5397137
0.0 0.0 0.0 0.0 0.0 -0.17990457 0.5397137 -0.17990457
1.6191411 0.0 0.5397137 0.17990457 -0.17990457 0.17990457 -0.17990457 -0.17990457
0.0 -0.35980913 0.0 0.0 -0.17990457 0.0 0.0 0.35980913

sequential_4/dense_15/MatMul f4 [15, 30]
00000000: 92a9 18bd ae8f 33be fd5f e03c 1021 65bd
00000010: da7e 123d 259e 7bbd e254 38bc 1239 b5bc
00000020: 2e0a 813b a091 97bc 4740 70bc ed11 2e3f
00000030: 051e 3dbe aa1e 98bc 597d 22be 85e4 1fbe
00000040: 0654 8b3f 9436 863d 0433 1bbc f8e9 67bd
00000050: 5963 8ebc 7b95 b83e a667 f8bc dcfc 01bf
00000060: eb3f 55be 2bd5 2bba 1d21 a73f 57b7 333f
00000070: e82b 36bd 2d16 603c 2d03 ad3e f359 e5bb
00000080: f105 d5be 5f92 703f d55f e2bc 790c 6cbe
00000090: b67a 6fbd 6c7f 8a3b c6d7 7cbc 9487 57c0
000000a0: a3ca efbf 77cf 18bd 373d 68bd 3fc9 eabc
000000b0: 58fa d0bd f2a3 26bd 63ce d7bc 89fa 46bc
000000c0: 6fc9 93c0 6bb5 cdbc 30af 11bd 8a73 a2bd
000000d0: 1e7e 99be 3889 e9be 8c2b 3c3e ca2d c8bf
000000e0: 9dbb 0a3d a7d0 ccbd 9ecb 2e3d cf82 24bf
000000f0: b5ed a33f eee0 133c 967e 6dbc aed0 8f3f
00000100: af32 f03c 4f8e ce3d 97e5 93bb fd78 df3b
00000110: 8f8f 1b3c 3b11 85bc 8ce6 133b 61e8 7a3d
00000120: 088e 8f3d 38c8 49bc 78be 6e3d d6c0 6abe
00000130: 935e 183c e2a9 3c3d 8fd4 adba 9b0e 153d
00000140: 0159 ee3b a5b0 733e fd96 51be ed6f 963d
00000150: 45c5 a3bd 6c84 3dbc d002 1dbd 3f4d 8fbc
00000160: 0944 323c 925c c5c0 ce8c 3ebe 8202 01bd
00000170: ef17 883b 6267 afbd 2ab6 35bb cee0 a23d
00000180: a2b4 84bb 21ba d63b f153 d2ba a813 883e
00000190: 28e6 743e 1ec0 9cbd 9725 ab3d d495 bd3c
000001a0: 09d5 863d a4c5 a2bd 3e3d 3e3f 3859 46bc
000001b0: 4e39 b43e 524e c53d 9007 773d fca7 25be
000001c0: 0d2c ed3c 8b01 293f 4b77 8abd b216 523e
000001d0: d58e 4a3f 08cb 68be 3b7d 363f aae4 ee3d
000001e0: 8c08 8c3f ab85 8dbd 491c 51c0 bcc6 2d3f
000001f0: 8a08 55bc b08f 63bf 9fbd d3bc c026 333c
00000200: bf22 6abc bbe6 00be 198f 6abd 0179 b8c0
00000210: b68a 97be b24d dabb 451d d6be 6eef 4abf
00000220: 812b 84be cd1d ffbc 901c d3bd 8d89 b2bd
00000230: 0fef 55bd 18b1 0dc0 71dd 1abf 6459 223c
00000240: a807 12bd a0b6 70bd 3612 86be b48d b3c0
00000250: 32ab 783c 0dc3 86bd b03a 4d3d 138a 2fbe
00000260: 70c3 27bd a289 24be 70fa 403e f301 04bc
00000270: f406 613e 83b9 ab3e fed8 6c3e 64f0 253e
00000280: eb33 c73d d441 efbc ef09 a3bd 04dc bf3e
00000290: 92d8 78bb 1ed5 2c3d 7fed 95bd 0508 5b3e
000002a0: 5f01 183e 757e a2bc 3004 4a3a 5785 a5be
000002b0: 9c05 54be a613 e83f 8022 e3bf a745 a83d
000002c0: 7e96 18bd bafb 50be d855 d73e 99f1 403e
000002d0: a86e 223c 4b0a c43f 3da2 8a3d 25fe 003e
000002e0: 2e86 a23b fbdc 8cbd c0ff 373c d6e1 d3bd
000002f0: f006 a7bc 4d22 d1bb f9c6 c2bb c632 acbe
00000300: 5fcd 743d 8460 c2bd 92fb d93c 8a31 a03f
00000310: a13f 393e 1858 ef3a 7112 47bc cba6 fa3e
00000320: a631 e53e d036 15be 261d 41be 27aa 03be
00000330: d088 e3bd d98e 34bb d259 d73d e74c b13d
00000340: 1679 613d 400e 8ebd 9426 4cbb 5f6a fdbd
00000350: dc6b 82bc fe40 a43e c94f b6bd 39c3 fc3a
00000360: 99cc 4abe 444b 02bf 69ea 13be d5d9 09bd
00000370: f8de 493c ae93 d0bc 82fb 78bd ad0b f3be
00000380: 1c25 f1bb 7f32 2a3d 0446 88bd 7c9e 24bd
00000390: 235c e53c ce7a 01bc e15f 593c 22ec 04c1
000003a0: df4c 14c0 74d8 d03e d0ca c6c0 c783 033c
000003b0: f252 dcbd ca8f 21c0 0309 a2be c56b a23d
000003c0: 14e6 ddbd a443 823e 517a aa3e 5f5b 38bd
000003d0: a8ae 173d d157 963f 62c5 5b3c 9fff 743c
000003e0: 48b4 0e3d 18a6 d1bb e6c8 0f3b 7d70 db3e
000003f0: dfe7 cb3f a129 bbbb 3364 903f efde a53e
-0.03727109 -0.17535278 0.02738952 -0.055939734 0.035765506 -0.061430115 -0.011250706 -0.02212194
0.003937981 -0.018502057 -0.014663762 0.679961 -0.18468483 -0.01856931 -0.15868129 -0.15614517
1.0885017 0.06553379 -0.009472612 -0.056619614 -0.017381357 0.36051545 -0.03032286 -0.5077646
-0.20825164 -0.0006554897 1.305698 0.7020163 -0.044475466 0.013677162 0.33791485 -0.006999248
-0.41606095 0.93973345 -0.027633587 -0.23051633 -0.058466636 0.0042266157 -0.015432304 -3.36765
-1.8733715 -0.03730723 -0.056699004 -0.028660415 -0.10203999 -0.040683694 -0.02634353 -0.012144693
-4.618339 -0.02511092 -0.035567462 -0.079321936 -0.29979032 -0.45612502 0.18375987 -1.5638974
0.03387033 -0.10000735 0.042674653 -0.642621 1.2806917 0.009025795 -0.0144955125 1.1235559
0.029321043 0.10085737 -0.004513453 0.006819843 0.009494676 -0.016243568 0.0022567837 0.06125677
0.07009512 -0.012315802 0.058287114 -0.22925124 0.009299892 0.04606045 -0.00132622 0.036390882
0.0072737937 0.23797853 -0.20467754 0.07345567 -0.079966106 -0.011567216 -0.03833276 -0.017492888
0.010880479 -6.16755 -0.186084 -0.031496532 0.0041532437 -0.085646406 -0.0027726986 0.07953034
-0.0040498534 0.00655295 -0.0016046745 0.26577497 0.23915923 -0.07653831 0.08356779 0.023142733
0.06583602 -0.07947853 0.743122 -0.012106232 0.3519997 0.09634079 0.060309947 -0.16177362
0.02895167 0.6601798 -0.067610346 0.2051647 0.79124194 -0.227337 0.71284837 0.11664708
1.0940108 -0.06910261 -3.2673514 0.6788137 -0.013002524 -0.88891125 -0.025847254 0.010934532
-0.014290511 -0.12588017 -0.057265375 -5.764771 -0.29598016 -0.006662094 -0.41819206 -0.7927159
-0.2581444 -0.03114214 -0.10308182 -0.08717642 -0.052229937 -2.213934 -0.6049414 0.009909008
-0.035651833 -0.058767915 -0.2618577 -5.6110477 0.015177535 -0.06580172 0.050104797 -0.17142515
-0.040957868 -0.16068128 0.18845534 -0.008057105 0.21975309 0.33539972 0.23129651 0.16204983
0.097266994 -0.029206194 -0.07960879 0.37472546 -0.0037970883 0.042195432 -0.073206894 0.21389778
0.14844273 -0.01983569 0.00077063125 -0.32328293 -0.20705265 1.8130996 -1.7744904 0.0821641
-0.037252896 -0.20408526 0.4205768 0.18842162 0.009914078 1.5315641 0.06769226 0.12596948
0.004959843 -0.06878086 0.011230409 -0.10345809 -0.02038905 -0.006382263 -0.0059441295 -0.33632487
0.05976617 -0.09491065 0.026609216 1.2515118 0.18090679 0.0018260507 -0.012150393 0.48955378
0.4476444 -0.1457169 -0.18858775 -0.12857877 -0.11110079 -0.0027550964 0.10515179 0.08657246
0.055047117 -0.06936312 -0.0031150924 -0.12373804 -0.015920572 0.32080835 -0.089019366 0.0019284255
-0.1980461 -0.50896096 -0.14444889 -0.033655006 0.012321226 -0.025461044 -0.06078673 -0.47469845
-0.00735916 0.041552063 -0.066539794 -0.040190205 0.027998036 -0.007902814 0.013267488 -8.30765
-2.3171918 0.4079014 -6.2122574 0.008027024 -0.10758008 -2.5244012 -0.316475 0.07930712
-0.108348995 0.2544223 0.33296445 -0.045009013 0.0370318 1.174555 0.013413759 0.014953523
0.0348399 -0.0063979737 0.0021939813 0.4285926 1.5930136 -0.0057117497 1.1280578 0.32396647

sequential_4/dense_16/MatMul f4 [26, 15]
00000000: c4ad 2a3e 879f 03bf 5329 d1bc a33a 15bf
00000010: 70f6 bdbe 9333 8e3f 1a24 e93d 7e82 2abf
00000020: e322 063e 44d3 8dbf 796d a5be 5cee 3ebf
00000030: f4b9 20bf 3204 bd3e 520b 793d afd0 a4bd
00000040: b77a c5be 6b43 883e c950 903a ae5a 27bf
00000050: 3ae7 083c 1f28 9bbf 8788 143f fe75 89c0
00000060: 81d0 0bbe 564d 76bf 0fdc 63bf 0047 f4bd
00000070: 6168 b63e 4015 053f 9694 003f b791 23bf
00000080: 2a2d b9bd 3555 093e 6c40 fabe 650f 2b3e
00000090: e6d5 813e 184c d8be e1f4 88bf e792 6d3a
000000a0: 5932 40be 1f57 a7bd 3543 163d e22a dfbe
000000b0: 0c6a 4cbf d127 4cbf 462b d9be 3f8b f7be
000000c0: 873a 5b3e 132d 3b3f a69c 94be 4bed 72be
000000d0: 4115 40bf f11c e3be e550 463e 5a39 09bf
000000e0: 1fb2 9bbf 90f4 80bd 0336 623f f954 67bf
000000f0: 682c bb3d 9447 27bf 0091 273e dbf0 57bc
00000100: 9599 63bf 0c45 56be 3e64 6bbf 97d0 543f
00000110: 8e85 00be 943c 343e bfaf 33bf 48a2 f0be
00000120: 3e95 e6be b690 543e 9267 eb3e 986d d4be
00000130: 5dc2 10bf c625 fd3d e80a af3d 1cda 3bbf
00000140: 5048 fcbd 88fd fc3d 1cdf 2a3f 12ce 8cbd
00000150: c731 05bd 2d14 c9be 7e80 22bf e116 6fbe
00000160: 1c57 11bf 9269 78bf 0ec2 61bf fece dfbe
00000170: 6eea 5b3f ab39 fdbf 280b 45bf 82f9 b6be
00000180: 1dc9 3d3c b90e 31bf f12b 0c3e 9d85 a53e
00000190: d7b8 663f 3643 90bf 1702 de3e 5bde eabe
000001a0: 6031 7dbf 7c1e 3fbf 8671 8f3e be8b 533f
000001b0: a0e2 acbe 9e08 293e cb80 9fbe c673 043e
000001c0: e6fb 0fbf d105 433d 065d aa3e 09d0 76be
000001d0: da18 9bbf dec6 f93d 14d2 95be 204b 69bf
000001e0: 6ae6 83be 209b da3d 5e4c b9be ff9e c13e
000001f0: 4b26 54bf f3ff 15bf 16cd 1cbf d752 43bf
00000200: 4867 e2ba 2687 8a3e 18df 56be 596f 92bf
00000210: d4ad 00be 20fc 56be 7a4a cf3e d598 b5be
00000220: e01f cebe e756 753e 324b a23e 3095 06bf
00000230: 5fae 24bf 4b9b ddbe a0d1 51bf 95d1 2b3d
00000240: fa79 d43e ad55 98be 2963 84bf 3d9a dbbe
00000250: a427 ebbe 14b7 6bbf b082 22c0 9275 213f
00000260: 9f17 4e3f daf9 e53d 955c c9be aa32 033e
00000270: e102 8b3c daf8 0e3e 830c 20bd 578c 66bf
00000280: 559f bf3f c38c a43d 1b5c 93be 4e38 83be
00000290: bd2f 8ebf f308 6d3f cda8 fd3f 9004 68bf
000002a0: 9dd4 8abf 4d4b 2bbf cbe3 da3f 21cc df3e
000002b0: 8a1c 14bf e575 70bf 1e1d b7bf abba dd3c
000002c0: 4a88 74bf 74ea 6ebd 737f 8c3d f93a 21bf
000002d0: 4b02 923e 2848 3dbf 4744 2b3e 9e56 1fbe
000002e0: 3761 0fbf e32c 033f 901a 6c3d 6831 cabd
000002f0: 4c76 db3d 7aaa 0bbf 1519 07be b07b 353f
00000300: 1bca 0f3d b1e0 62be 68fd 81bd db14 b43e
00000310: 37bf 40bf 74b2 233e ad6d 8dbd 7ce2 e8be
00000320: abaf cc3e 772f 0a3e e922 d9bc c4ba a93d
00000330: 76f5 f2be 4348 83be 01a1 823f be41 fa3c
00000340: 3d9a e4be 97d2 97be 4cc6 a9be 3709 eebe
00000350: c84e 283e 78ca 96bc bc8a 49bf 663f f83e
00000360: e6f6 47be 4b37 f5be fb64 dabd 488e f1be
00000370: 0591 39bf 7a37 f4be 5a50 513d 26d6 203f
00000380: 4bb3 7dbf e8a8 6d3d c821 e3be 7d90 ad3e
00000390: 6231 e3be 3e3e fcbe a2d9 e1be f9df 343e
000003a0: a6a4 3abf d3fb 27bf fe6a 023f 8c47 f6be
000003b0: 2676 453f 9664 f53e 7065 9ebe 0476 11bf
000003c0: 6ee5 a63e ecfe 31bf e286 79be a0b0 19bf
000003d0: c427 26bf 78ed 48be 58e1 0f3e 1d0e 04bf
000003e0: ee24 f2be 1d03 953e 284f e2be b957 8d3f
000003f0: dbe3 e2be 0ba2 c0be 01f5 28bf 5916 92bf
0.16667849 -0.51415294 -0.0255324 -0.582926 -0.3710208 1.1109489 0.11383839 -0.66605365
0.13099246 -1.1080098 -0.32310084 -0.7458246 -0.6278374 0.36917263 0.06080181 -0.08047616
-0.38570186 0.26613936 0.0011010404 -0.6537274 0.00835591 -1.2121619 0.58020824 -4.2956533
-0.13653757 -0.96211755 -0.8900766 -0.11927605 0.3562651 0.5198555 0.50226724 -0.6389422
-0.090418175 0.1341141 -0.48877275 0.16705091 0.25358504 -0.42245555 -1.0699731 0.00090627227
-0.18769206 -0.08170914 0.036685187 -0.43587404 -0.79849315 -0.79748255 -0.42415828 -0.48348424
0.21409045 0.7311565 -0.29025763 -0.23723333 -0.7503243 -0.44358018 0.19366796 -0.53603137
-1.2163733 -0.062966466 0.88363665 -0.90364033 0.09139329 -0.65343595 0.16363907 -0.013179983
-0.8890622 -0.20924777 -0.9194983 0.8313078 -0.12550947 0.17601234 -0.7019004 -0.4699881
-0.45035738 0.20758328 0.45977455 -0.41489863 -0.56546575 0.1236072 0.08547002 -0.73379683
-0.1231848 0.12353045 0.6674669 -0.06875242 -0.032518174 -0.39273205 -0.63477314 -0.23348571
-0.56773543 -0.9703609 -0.8818673 -0.4371261 0.85904586 -1.9783224 -0.7697015 -0.35737234
0.011583594 -0.6916309 0.13688637 0.323285 0.90125793 -1.1270511 0.4336097 -0.4587277
-0.98903465 -0.7465589 0.280163 0.82635105 -0.3376665 0.16507193 -0.3115295 0.12934789
-0.5624374 0.04761297 0.33274096 -0.24102797 -1.2116959 0.12196134 -0.2926184 -0.91130257
-0.2576173 0.10674119 -0.36191076 0.37816617 -0.8287093 -0.5859367 -0.61250436 -0.7629828
-0.0017273212 0.27056235 -0.20983541 -1.1440231 -0.1256631 -0.20994616 0.4048651 -0.35468164
-0.40258694 0.23958932 0.31697994 -0.5257139 -0.6432857 -0.43282542 -0.8196049 0.04194792
0.4149931 -0.29752865 -1.0342761 -0.42891112 -0.4592868 -0.9207623 -2.5392265 0.63070023
0.8050479 0.11229296 -0.39328447 0.12812296 0.016969146 0.13962117 -0.039074432 -0.9005789
1.4970499 0.08034661 -0.28781208 -0.25628895 -1.1108319 0.9259178 1.9817139 -0.9063196
-1.0846134 -0.66911775 1.7100767 0.43710425 -0.5785605 -0.9392989 -1.4305761 0.02706655
-0.9552046 -0.05832906 0.068602465 -0.6298061 0.28517374 -0.73938227 0.16725264 -0.15560386
-0.56007713 0.51240367 0.05764252 -0.09872705 0.10715923 -0.54557 -0.13193162 0.7089186
0.035104852 -0.22156025 -0.063471615 0.3517216 -0.7529177 0.15986043 -0.069056846 -0.45485294
0.39977774 0.13494669 -0.026505904 0.08287576 -0.47452897 -0.2564107 1.0205384 0.030548926
-0.44648924 -0.29652855 -0.331591 -0.46491405 0.16436303 -0.018407091 -0.78727317 0.4848587
-0.19527778 -0.47893748 -0.10663792 -0.47178864 -0.7248691 -0.47698575 0.05110202 0.62826765
-0.99101704 0.05802241 -0.4436171 0.33899298 -0.44373614 -0.49266237 -0.44111353 0.17663564
-0.72907484 -0.6561863 0.5094451 -0.4810146 0.77133405 0.47928303 -0.30936766 -0.568207
0.32596916 -0.69529605 -0.2436786 -0.60035133 -0.6490443 -0.19621837 0.14050806 -0.51584035
-0.472938 0.29103938 -0.44201016 1.1042396 -0.44314465 -0.3762363 -0.65998846 -1.141307
